src/pretrained/siamfc_Con2Net_FocalLoss_e901.pth (torch, 400885 bytes, 20 tensors)

backbone.net.0.weight f4 [96, 3, 11, 11]
-0.0062855794 -0.0187339 0.015198981 0.013546304 -0.0021159868 0.016307767 -0.002694383 0.008349583
0.0012528214 0.005667036 -0.018782688 0.020969281 0.014445886 0.017023453 -0.0007267355 0.018231792
0.0044657215 -0.01826217 0.0021759004 0.0054410896 0.01978548 0.019149935 -0.006734522 0.010318756
-0.0028347906 -0.00821377 0.017937135 0.014478442 0.0113130165 -0.0055504343 -0.015627231 0.01545244
-0.00238056 -0.020687403 -0.017291926 -0.021520402 -0.0043201456 -0.010249888 0.002509709 -0.0017393662
0.007939473 0.012766074 0.009893486 0.011550097 0.022306185 -0.0029138094 0.010039812 0.0029502
-0.0043937513 -0.016968105 -0.002198535 0.0004661617 0.0099489745 0.006287295 -0.011013664 0.01898263
0.00068333367 -0.00022687523 -0.020779554 0.021835022 0.00057201437 -0.017240182 0.014806209 -0.0019500338
0.017087981 0.01890889 -0.0020030187 0.010888313 0.011774911 0.016983747 0.020572182 0.005651765
0.008655362 -0.015672293 -0.010893603 0.008916281 -0.0041401754 -0.003026948 -0.0204089 0.016869335
0.0174341 -0.017725477 -0.00069400005 0.0019490226 0.022097474 0.0022668822 0.011892446 -0.004769665
0.0061303186 0.016952205 0.0011745205 -0.0020664993 0.015648613 0.0033742832 0.012207266 0.012506392
0.01358532 0.012080337 -0.015861642 0.010500664 -4.6523328e-05 0.020772452 -0.021586178 0.014635125
0.0056390762 0.011362161 0.008568574 -0.003827505 -0.005866325 0.0058055734 0.010662259 -0.002828625
-0.0070347576 0.0016375768 0.0069645187 -0.01909794 0.0033769484 0.017635383 -0.0035912388 0.017946826
0.018134886 -0.019657634 -0.008234958 -0.0006963265 0.00042351751 0.0028197835 -0.0077465447 -0.018073168
-0.02201956 -0.01442008 0.005184471 0.011739987 -0.01961599 0.0049667847 0.0016262569 -0.01085833
-0.017346792 0.0027240238 -0.0070381938 0.019574344 -0.009250456 -0.01698349 0.009803163 -0.01566204
0.01815081 -0.01996627 -0.012161447 0.019214658 0.007441966 -0.01081392 0.009102703 0.005247224
0.0001147369 -0.011121366 0.0107677 -0.00076563656 -0.0030338713 -0.016493931 -0.012132585 -0.01569824
-0.017685702 0.017397948 0.010809982 -0.00397887 -0.017340608 -0.014300258 0.0047574085 -0.007892982
0.016051395 -0.003511988 -0.021592172 -0.019702487 0.011857294 -0.01750011 -0.0191151 -0.0043576756
-0.021566585 0.0148659395 0.00081676745 0.0010513716 -0.014169333 -0.0035012204 -0.008971425 -0.002617357
-0.0141497925 0.0010280405 0.021780789 -0.009048522 -0.007557663 0.010150475 0.019584922 -0.011741751
-0.002912825 -0.022181371 0.0038050385 0.019064251 -0.015372509 -0.009390497 -0.0011021555 -0.0053454414
-0.018738747 0.009217402 0.009530646 0.0146604255 -0.009952224 0.01825597 -0.009277188 0.020266846
0.02100957 0.01477453 0.010913049 0.0050307564 0.021692747 0.015905939 -0.0024862017 -0.017515019
0.0052519753 0.0028124843 -0.014749465 0.0069961604 0.007050357 -0.0039495416 -0.007856396 -0.011226606
-0.0012560897 -0.017974403 0.017830454 0.02091048 0.008537425 -0.01858883 -0.013073834 -0.010069984
-0.01552226 -0.014019467 -0.021493196 0.009823115 -0.018994845 -0.010575097 0.0058258874 -0.016658325
0.0067978264 0.016809309 0.003986345 -0.004669103 -0.009074628 -0.014863842 -0.011870654 0.011803396
0.019573024 0.015379016 0.0003405663 -0.0069201034 0.0106307445 -0.0077626803 0.008166611 -0.0034577146
00000000: 43f7 cdbb d677 99bc 2605 793c 51f1 5d3c
00000010: 5eac 0abb de97 853c 3f94 30bb b0cc 083c
00000020: b635 a43a 8bb2 b93b 27de 99bc c5c7 ab3c
00000030: 70ae 6c3c c574 8b3c 6582 3eba d75a 953c
00000040: 3055 923b 8c9a 95bc 8d99 0e3b 2b4b b23b
00000050: 2915 a23c 53e0 9c3c 44ad dcbb 0010 293c
00000060: e5c7 39bb 0c93 06bc e6f0 923c fd36 6d3c
00000070: 3b5a 393c 6be0 b5bb ae04 80bc 3b2c 7d3c
00000080: 2b03 1cbb a178 a9bc cca7 8dbc 8e4b b0bc
00000090: 0290 8dbb 25ef 27bc ee79 243b 72fb e3ba
000000a0: 9014 023c cc28 513c 4a18 223c 9e3c 3d3c
000000b0: 76bb b63c 9cf5 3ebb 067e 243c 2558 413b
000000c0: 75f9 8fbb b200 8bbc 4c15 10bb 2a67 f439
000000d0: 0601 233c a705 ce3b a872 34bc 7681 9b3c
000000e0: bf21 333a 5be5 6db9 e239 aabc 5cdf b23c
000000f0: 3cf3 153a 483b 8dbc be95 723c 4798 ffba
00000100: 18fc 8b3c d1e6 9a3c 1445 03bb e564 323c
00000110: 8eeb 403c 8021 8b3c fe86 a83c 7132 b93b
00000120: 38cf 0d3c 2e63 80bc 157b 32bc 9815 123c
00000130: 4faa 87bb c35f 46bb 9130 a7bc 8f31 8a3c
00000140: f5d1 8e3c 0535 91bc 8eed 35ba 5976 ff3a
00000150: c305 b53c f98f 143b 89d8 423c da4a 9cbb
00000160: d7e0 c83b 5adf 8a3c 5ef2 993a 1b6e 07bb
00000170: 8531 803c 1423 5d3b fc00 483c 9ce7 4c3c
00000180: f694 5e3c 9bec 453c 46f0 81bc fa0a 2c3c
00000190: 0b22 43b8 fd2a aa3c 7fd5 b0bc 2ac8 6f3c
000001a0: 00c8 b83b 5b28 3a3c 3463 0c3c e1d6 7abb
000001b0: 4d3a c0bb ae3c be3b c1b0 2e3c 7460 39bb
000001c0: d383 e6bb f6a3 d63a 9e36 e43b 4873 9cbc
000001d0: cb4f 5d3b 1478 903c fd5a 6bbb 3905 933c
000001e0: 9d8f 943c 0c09 a1bc ebeb 06bc ae89 36ba
000001f0: 8f0b de39 1ecc 383b bad6 fdbb 2e0e 94bc
00000200: 5d62 b4bc 3342 6cbc 7fe2 a93b 1359 403c
00000210: b6b1 a0bc 69c0 a23b 2028 d53a 23e7 31bc
00000220: dc1a 8ebc 8985 323b a6a0 e6bb 605a a03c
00000230: 398f 17bc f620 8bbc 729d 203c ae4d 80bc
00000240: 02b1 943c 4e90 a3bc ce40 47bc 0f68 9d3c
00000250: bcdb f33b de2c 31bc 8123 153c e8f0 ab3b
00000260: e79e f038 6436 36bc 026b 303c 00b5 48ba
00000270: ead3 46bb 481e 87bc c0c7 46bc 9899 80bc
00000280: 9be1 90bc 2486 8e3c 5a1c 313c 2e61 82bb
00000290: e40d 8ebc a14b 6abc 09e4 9b3b 9151 01bc
000002a0: 377e 833c 6229 66bb 11e2 b0bc 1c67 a1bc
000002b0: 1845 423c 645c 8fbc 4597 9cbc d5ca 8ebb
000002c0: 68ac b0bc 4590 733c 561c 563a 2dce 893a
000002d0: 7d26 68bc bb74 65bb e2fc 12bc f787 2bbb
000002e0: 88d4 67bc 51bf 863a a06d b23c 4140 14bc
000002f0: 46a6 f7bb 2e4e 263c 8f70 a03c 7960 40bc
00000300: 18e5 3ebb b5b5 b5bc f45d 793b a22c 9c3c
00000310: fadc 7bbc 99da 19bc 3476 90ba d028 afbb
00000320: 0082 99bc 9604 173c 6d26 1c3c 4832 703c
00000330: a70e 23bc 8b8d 953c 59ff 17bc a806 a63c
00000340: 431c ac3c df10 723c a5cc 323c 0bd9 a43b
00000350: fdb4 b13c 2c4d 823c 8bef 22bb a87b 8fbc
00000360: c318 ac3b a851 383b bda7 71bc 0c40 e53b
00000370: ae06 e73b 286b 81bb 1db8 00bc ccef 37bc
00000380: 60a3 a4ba 0e3f 93bc 2c11 923c 744c ab3c
00000390: 8ee0 0b3c 9a47 98bc a233 56bc 93fc 24bc
000003a0: 1451 7ebc e8b1 65bc 8012 b0bc 21f1 203c
000003b0: 149b 9bbc 2c43 2dbc 16e7 be3b 0a77 88bc
000003c0: 4dc0 de3b adb3 893c e39f 823b 46ff 98bb
000003d0: c0ad 14bc 7987 73bc 227d 42bc 0863 413c
000003e0: 9b57 a03c 45f8 7b3c 098e b239 09c2 e2bb
000003f0: 932c 2e3c 155e febb 40cd 053c d39a 62bb

backbone.net.0.bias f4 [96]
0.0 0.0 0.0 0.0 0.0 0.0 0.0 0.0
0.0 0.0 0.0 0.0 0.0 0.0 0.0 0.0
0.0 0.0 0.0 0.0 0.0 0.0 0.0 0.0
0.0 0.0 0.0 0.0 0.0 0.0 0.0 0.0
0.0 0.0 0.0 0.0 0.0 0.0 0.0 0.0
0.0 0.0 0.0 0.0 0.0 0.0 0.0 0.0
0.0 0.0 0.0 0.0 0.0 0.0 0.0 0.0
0.0 0.0 0.0 0.0 0.0 0.0 0.0 0.0
0.0 0.0 0.0 0.0 0.0 0.0 0.0 0.0
0.0 0.0 0.0 0.0 0.0 0.0 0.0 0.0
0.0 0.0 0.0 0.0 0.0 0.0 0.0 0.0
0.0 0.0 0.0 0.0 0.0 0.0 0.0 0.0
00000000: 0000 0000 0000 0000 0000 0000 0000 0000
00000010: 0000 0000 0000 0000 0000 0000 0000 0000
00000020: 0000 0000 0000 0000 0000 0000 0000 0000
00000030: 0000 0000 0000 0000 0000 0000 0000 0000
00000040: 0000 0000 0000 0000 0000 0000 0000 0000
00000050: 0000 0000 0000 0000 0000 0000 0000 0000
00000060: 0000 0000 0000 0000 0000 0000 0000 0000
00000070: 0000 0000 0000 0000 0000 0000 0000 0000
00000080: 0000 0000 0000 0000 0000 0000 0000 0000
00000090: 0000 0000 0000 0000 0000 0000 0000 0000
000000a0: 0000 0000 0000 0000 0000 0000 0000 0000
000000b0: 0000 0000 0000 0000 0000 0000 0000 0000
000000c0: 0000 0000 0000 0000 0000 0000 0000 0000
000000d0: 0000 0000 0000 0000 0000 0000 0000 0000
000000e0: 0000 0000 0000 0000 0000 0000 0000 0000
000000f0: 0000 0000 0000 0000 0000 0000 0000 0000
00000100: 0000 0000 0000 0000 0000 0000 0000 0000
00000110: 0000 0000 0000 0000 0000 0000 0000 0000
00000120: 0000 0000 0000 0000 0000 0000 0000 0000
00000130: 0000 0000 0000 0000 0000 0000 0000 0000
00000140: 0000 0000 0000 0000 0000 0000 0000 0000
00000150: 0000 0000 0000 0000 0000 0000 0000 0000
00000160: 0000 0000 0000 0000 0000 0000 0000 0000
00000170: 0000 0000 0000 0000 0000 0000 0000 0000

backbone.net.1.weight f4 [96]
0.9999968 0.9999968 0.9999968 0.9999968 0.9999968 0.9999968 0.9999968 0.9999968
0.9999968 0.9999968 0.9999968 0.9999968 0.9999968 0.9999968 0.9999968 0.9999968
0.9999968 0.9999968 0.9999968 0.9999968 0.9999968 0.9999968 0.9999968 0.9999968
0.9999968 0.9999968 0.9999968 0.9999968 0.9999968 0.9999968 0.9999968 0.9999968
0.9999968 0.9999968 0.9999968 0.9999968 0.9999968 0.9999968 0.9999968 0.9999968
0.9999968 0.9999968 0.9999968 0.9999968 0.9999968 0.9999968 0.9999968 0.9999968
0.9999968 0.9999968 0.9999968 0.9999968 0.9999968 0.9999968 0.9999968 0.9999968
0.9999968 0.9999968 0.9999968 0.9999968 0.9999968 0.9999968 0.9999968 0.9999968
0.9999968 0.9999968 0.9999968 0.9999968 0.9999968 0.9999968 0.9999968 0.9999968
0.9999968 0.9999968 0.9999968 0.9999968 0.9999968 0.9999968 0.9999968 0.9999968
0.9999968 0.9999968 0.9999968 0.9999968 0.9999968 0.9999968 0.9999968 0.9999968
0.9999968 0.9999968 0.9999968 0.9999968 0.9999968 0.9999968 0.9999968 0.9999968
00000000: caff 7f3f caff 7f3f caff 7f3f caff 7f3f
00000010: caff 7f3f caff 7f3f caff 7f3f caff 7f3f
00000020: caff 7f3f caff 7f3f caff 7f3f caff 7f3f
00000030: caff 7f3f caff 7f3f caff 7f3f caff 7f3f
00000040: caff 7f3f caff 7f3f caff 7f3f caff 7f3f
00000050: caff 7f3f caff 7f3f caff 7f3f caff 7f3f
00000060: caff 7f3f caff 7f3f caff 7f3f caff 7f3f
00000070: caff 7f3f caff 7f3f caff 7f3f caff 7f3f
00000080: caff 7f3f caff 7f3f caff 7f3f caff 7f3f
00000090: caff 7f3f caff 7f3f caff 7f3f caff 7f3f
000000a0: caff 7f3f caff 7f3f caff 7f3f caff 7f3f
000000b0: caff 7f3f caff 7f3f caff 7f3f caff 7f3f
000000c0: caff 7f3f caff 7f3f caff 7f3f caff 7f3f
000000d0: caff 7f3f caff 7f3f caff 7f3f caff 7f3f
000000e0: caff 7f3f caff 7f3f caff 7f3f caff 7f3f
000000f0: caff 7f3f caff 7f3f caff 7f3f caff 7f3f
00000100: caff 7f3f caff 7f3f caff 7f3f caff 7f3f
00000110: caff 7f3f caff 7f3f caff 7f3f caff 7f3f
00000120: caff 7f3f caff 7f3f caff 7f3f caff 7f3f
00000130: caff 7f3f caff 7f3f caff 7f3f caff 7f3f
00000140: caff 7f3f caff 7f3f caff 7f3f caff 7f3f
00000150: caff 7f3f caff 7f3f caff 7f3f caff 7f3f
00000160: caff 7f3f caff 7f3f caff 7f3f caff 7f3f
00000170: caff 7f3f caff 7f3f caff 7f3f caff 7f3f

backbone.net.1.bias f4 [96]
0.0 0.0 0.0 0.0 0.0 0.0 0.0 0.0
0.0 0.0 0.0 0.0 0.0 0.0 0.0 0.0
0.0 0.0 0.0 0.0 0.0 0.0 0.0 0.0
0.0 0.0 0.0 0.0 0.0 0.0 0.0 0.0
0.0 0.0 0.0 0.0 0.0 0.0 0.0 0.0
0.0 0.0 0.0 0.0 0.0 0.0 0.0 0.0
0.0 0.0 0.0 0.0 0.0 0.0 0.0 0.0
0.0 0.0 0.0 0.0 0.0 0.0 0.0 0.0
0.0 0.0 0.0 0.0 0.0 0.0 0.0 0.0
0.0 0.0 0.0 0.0 0.0 0.0 0.0 0.0
0.0 0.0 0.0 0.0 0.0 0.0 0.0 0.0
0.0 0.0 0.0 0.0 0.0 0.0 0.0 0.0
00000000: 0000 0000 0000 0000 0000 0000 0000 0000
00000010: 0000 0000 0000 0000 0000 0000 0000 0000
00000020: 0000 0000 0000 0000 0000 0000 0000 0000
00000030: 0000 0000 0000 0000 0000 0000 0000 0000
00000040: 0000 0000 0000 0000 0000 0000 0000 0000
00000050: 0000 0000 0000 0000 0000 0000 0000 0000
00000060: 0000 0000 0000 0000 0000 0000 0000 0000
00000070: 0000 0000 0000 0000 0000 0000 0000 0000
00000080: 0000 0000 0000 0000 0000 0000 0000 0000
00000090: 0000 0000 0000 0000 0000 0000 0000 0000
000000a0: 0000 0000 0000 0000 0000 0000 0000 0000
000000b0: 0000 0000 0000 0000 0000 0000 0000 0000
000000c0: 0000 0000 0000 0000 0000 0000 0000 0000
000000d0: 0000 0000 0000 0000 0000 0000 0000 0000
000000e0: 0000 0000 0000 0000 0000 0000 0000 0000
000000f0: 0000 0000 0000 0000 0000 0000 0000 0000
00000100: 0000 0000 0000 0000 0000 0000 0000 0000
00000110: 0000 0000 0000 0000 0000 0000 0000 0000
00000120: 0000 0000 0000 0000 0000 0000 0000 0000
00000130: 0000 0000 0000 0000 0000 0000 0000 0000
00000140: 0000 0000 0000 0000 0000 0000 0000 0000
00000150: 0000 0000 0000 0000 0000 0000 0000 0000
00000160: 0000 0000 0000 0000 0000 0000 0000 0000
00000170: 0000 0000 0000 0000 0000 0000 0000 0000

backbone.net.1.running_mean f4 [96]
4.8458085 72.288 -26.610357 20.490368 -25.039112 -2.7158847 -29.301434 26.595823
51.279343 0.68057007 -12.131441 20.735817 19.329754 31.87154 12.8347025 23.693178
11.992685 57.176544 66.23296 29.886095 -28.974483 -10.012881 -37.518337 20.465912
23.456549 -25.528513 -13.45505 15.807812 -10.057025 -9.308697 10.304913 27.540504
8.6705885 23.837025 -40.621834 -19.68341 17.174011 56.286716 -14.334814 52.732754
15.343882 29.810799 -15.481865 23.90718 -32.358406 -4.5366545 45.0386 15.545312
-16.20979 10.668312 -29.6256 61.168865 -12.355814 -1.2816061 -41.909523 27.951817
-58.529842 7.0906677 4.4047976 12.788432 -30.044754 -0.81453276 5.8534427 3.2430375
19.246613 -4.385233 0.7013807 -15.417765 78.80808 -26.667202 3.6803083 82.33546
26.405079 18.966015 -10.767278 13.597453 17.405407 26.037132 15.439214 -26.351263
12.990661 -13.450605 16.41366 31.552528 -58.089554 -47.750492 16.319115 24.704273
67.485275 -15.88377 41.87926 14.01574 48.428482 -12.146852 11.991199 -6.9467664
00000000: dd10 9b40 7593 9042 03e2 d4c1 46ec a341
00000010: 1a50 c8c1 0ed1 2dc0 5669 eac1 3fc4 d441
00000020: 0c1e 4d42 d739 2e3f 621a 42c1 f4e2 a541
00000030: 56a3 9a41 eaf8 fe41 f15a 4d41 a18b bd41
00000040: 0ae2 3f41 c8b4 6442 4777 8442 b916 ef41
00000050: becb e7c1 c334 20c1 c712 16c2 30ba a341
00000060: 03a7 bb41 653a ccc1 e347 57c1 ccec 7c41
00000070: 93e9 20c1 6cf0 14c1 ece0 2441 f452 dc41
00000080: bbba 0a41 3ab2 be41 c27c 22c2 a077 9dc1
00000090: 6064 8941 9925 6142 665b 65c1 57ee 5242
000000a0: 8a80 7541 847c ee41 b8b5 77c1 e841 bf41
000000b0: 026f 01c2 462c 91c0 8727 3442 99b9 7841
000000c0: a6ad 81c1 68b1 2a41 3b01 edc1 ebac 7442
000000d0: 6ab1 45c1 ab0b a4bf 5aa3 27c2 529d df41
000000e0: 8f1e 6ac2 c0e6 e240 1af4 8c40 6b9d 4c41
000000f0: a85b f0c1 3885 50bf 674f bb40 ed8d 4f40
00000100: 10f9 9941 d453 8cc0 b08d 333f 2aaf 76c1
00000110: bd9d 9d42 6e56 d5c1 2c8a 6b40 c1ab a442
00000120: 9a3d d341 66ba 9741 c546 2cc1 2b8f 5941
00000130: 463e 8b41 0c4c d041 0507 7741 63cf d2c1
00000140: bfd9 4f41 ae35 57c1 2d4f 8341 946b fc41
00000150: b45b 68c2 8100 3fc2 8c8d 8241 5aa2 c541
00000160: 76f8 8642 ec23 7ec1 5d84 2742 7940 6041
00000170: c4b6 4142 8159 42c1 f3db 3f41 e94b dec0

backbone.net.1.running_var f4 [96]
35.22658 571.83844 84.97 75.315254 100.50704 28.372852 105.62967 83.749626
286.65057 12.87275 76.94581 66.85019 58.47202 121.903946 39.34561 75.851776
25.468645 395.1598 466.9892 111.764244 96.762436 26.42463 158.97864 66.938416
64.37663 94.92321 28.803442 41.229042 25.682419 25.211113 34.24513 110.864746
23.566143 72.68406 178.7203 62.239548 62.329075 374.16232 54.31323 344.67133
54.072746 115.39575 39.101418 84.11761 126.13015 16.97274 218.1084 45.511444
41.39381 24.992285 117.798294 396.34177 30.412594 13.901869 196.38193 95.20244
356.6754 16.265478 22.37496 39.333473 128.3521 23.326918 34.7599 19.356382
50.54653 28.07971 23.862284 64.26975 678.4372 115.310844 24.21428 714.61115
86.71802 91.23614 29.98262 72.56307 51.92913 84.57578 53.412964 86.48723
29.317228 41.77166 42.361843 136.19302 357.9102 252.14394 41.19119 82.46754
485.68558 40.072758 213.11003 40.070957 250.88281 44.622635 27.896795 21.384712
00000000: 05e8 0c42 a9f5 0e44 a4f0 a942 69a1 9642
00000010: 9b03 c942 9afb e241 6442 d342 cf7f a742
00000020: 4653 8f43 c9f6 4d41 41e4 9942 4cb3 8542
00000030: 59e3 6942 d2ce f342 e861 1d42 1cb4 9742
00000040: c9bf cb41 7494 c543 9e7e e943 4b87 df42
00000050: 5e86 c142 a465 d341 88fa 1e43 78e0 8542
00000060: d6c0 8042 afd8 bd42 736d e641 8aea 2442
00000070: 9875 cd41 5cb0 c941 03fb 0842 c0ba dd42
00000080: 7687 bc41 3d5e 9142 66b8 3243 4cf5 7842
00000090: f950 7942 c714 bb43 bf40 5942 ee55 ac43
000000a0: 7e4a 5842 a0ca e642 da67 1c42 373c a842
000000b0: a342 fc42 2cc8 8741 c01b 5a43 b80b 3642
000000c0: 4393 2542 33f0 c741 ba98 eb42 bf2b c643
000000d0: fe4c f341 0e6e 5e41 c661 4443 a667 be42
000000e0: 7456 b243 b31f 8241 ebff b241 7a55 1d42
000000f0: 235a 0043 879d ba41 230a 0b42 dfd9 9a41
00000100: a62f 4a42 3fa3 e041 f5e5 be41 1d8a 8042
00000110: fb9b 2944 279f e642 d8b6 c141 1da7 3244
00000120: a06f ad42 e778 b642 68dc ef41 4b20 9142
00000130: 6eb7 4f42 cd26 a942 e0a6 5542 76f9 ac42
00000140: af89 ea41 2e16 2742 8772 2942 6a31 0843
00000150: 81f4 b243 d924 7c43 c7c3 2442 61ef a442
00000160: c1d7 f243 814a 2042 2b1c 5543 a948 2042
00000170: 00e2 7a43 947d 3242 a32c df41 e413 ab41

backbone.net.4.weight f4 [16, 96, 3, 3]
0.05211612 0.031447653 0.023187585 0.009001167 -0.04876478 -0.03212606 -0.06509838 -0.061499573
-0.0064354604 0.07509701 0.053808745 0.0043763705 0.030859062 -0.045342073 0.06680532 -0.03974667
-0.031398732 -0.01301299 -0.021088762 0.048371047 -0.012931475 0.0023646376 0.04595542 -0.040650006
-0.056453854 0.036034234 -0.008294759 0.03963624 -0.004829074 0.025040042 -0.03376151 0.04108095
0.062213697 -0.052580852 0.021064878 0.076549016 -0.059234817 -0.046272382 0.07135851 -0.06937217
0.009399753 0.07043311 0.0047777905 0.009673397 0.053503152 0.03405181 -0.032463692 -0.0073342714
0.057295673 0.00088488706 0.055916212 0.020783564 0.05840898 0.0015735434 -0.06605307 -0.06410863
-0.036155906 0.035065882 0.00610026 0.03846492 0.035794426 0.041330934 -0.002226496 -0.06604551
-0.0378781 0.07095832 -0.061408926 0.01069247 0.03908209 0.008255386 -0.06019569 0.070273906
0.03383165 -0.013486809 -0.009293949 -0.0026198681 -0.01945624 0.0416939 0.01877324 0.057677034
-0.025246428 0.028288987 -0.06347296 0.03910385 0.022863975 0.027393442 0.0062631974 0.05504631
-0.005793406 -0.018762818 0.030348344 -0.040487695 0.048067294 0.051512334 0.039374843 0.025404204
0.047734056 0.019296264 -0.019886436 0.046243634 -0.04672128 0.009393057 0.06796994 -0.05078464
-0.0017010161 -0.006862264 -0.07530819 -0.029556917 -0.05222885 0.04618271 0.033820968 -0.041861244
0.06472686 0.025978725 -0.03614781 0.05124542 0.05825293 0.06789191 0.00726395 -0.018816704
-0.028195867 -0.005486616 0.0054974593 -0.04809576 -0.04607593 0.00073487207 -0.0034645912 0.069353245
-0.0767984 -0.014786221 0.055553917 0.036785163 -0.0695756 0.045462765 -0.03445309 0.023197021
0.025416657 0.059678625 0.059634812 0.05046735 0.036858823 -0.040387843 -0.011514632 0.044165302
0.005608948 0.07505456 0.072133705 -0.055009197 -0.011401333 -0.07593346 0.049366143 0.033280317
-0.0713008 -0.022292536 0.013138458 0.064377055 0.00479257 0.076051846 -0.068896815 -0.038099643
0.021470373 0.06753545 -0.031812705 -0.036897812 0.06948002 0.023583855 -0.013864003 0.045093145
-0.0065508117 -0.030320827 0.059592478 0.02953409 -0.0059656603 -0.061925717 0.06402716 -0.010419203
-0.0020153201 0.01483699 -0.03715946 -0.023705103 -0.053484626 0.033097457 -0.07212964 -0.07470984
-0.045596685 0.011037355 -0.0020973952 -0.07375651 -0.06740514 -0.06981283 -0.024142897 0.07168139
0.028320093 -0.004172037 -0.0632766 0.016071258 -0.06525764 -0.017983377 -0.042195342 0.035630964
0.034344386 0.014211868 0.026026864 0.0072728526 -0.06411139 -0.069253646 0.051233236 0.020326668
0.054201268 -0.00056546024 -0.05190255 -0.056624964 0.040935215 0.05676901 0.04159607 -0.061651014
0.032371454 0.03285962 0.064576484 0.064612806 -0.0420683 -0.060909573 0.07137978 -0.07392941
-0.050387114 0.01008726 -0.070184544 0.00013719413 -0.0010864796 0.06666495 -0.062158838 -0.039895177
0.038811285 0.06442187 -0.05528812 0.008241903 -0.054462425 -0.00850611 -0.0015431375 0.068279214
-0.04424647 0.046984956 -0.031728253 0.067066364 -0.025344955 0.061774515 0.06924603 0.026734445
-0.011811913 -0.03899738 -0.06436041 -0.028747622 -0.02264395 -0.07520303 0.031960227 0.023061141
00000000: b677 553d 41cf 003d e4f3 bd3c a179 133c
00000010: 94bd 47bd 9e96 03bd 4d52 85bd fae6 7bbd
00000020: 8ee0 d2bb 76cc 993d 8f66 5c3d a867 8f3b
00000030: 25cc fc3c 9cb8 39bd 3ad1 883d 67cd 22bd
00000040: f59b 00bd 7034 55bc 57c2 acbc b820 463d
00000050: 8ade 53bc 09f8 1a3b c03b 3c3d 9f80 26bd
00000060: 283c 67bd a298 133d bee6 07bc 9c59 223d
00000070: 353d 9ebb c620 cd3c 8249 0abd 8044 283d
00000080: cad3 7e3d 055f 57bd 4090 ac3c bbc5 9c3d
00000090: 35a0 72bd 1c88 3dbd 6924 923d ff12 8ebd
000000a0: 6c01 1a3c 3c3f 903d 038f 9c3b 2b7d 1e3c
000000b0: 1f26 5b3d e979 0b3d a6f8 04bd 5454 f0bb
000000c0: deae 6a3d c4f7 673a 6608 653d 4b42 aa3c
000000d0: 413e 6f3d 5b3f ce3a d546 87bd 634b 83bd
000000e0: 3718 14bd 3ea1 0f3d b1e4 c73b 648d 1d3d
000000f0: 2d9d 123d a04a 293d 68ea 11bb de42 87bd
00000100: 1126 1bbd 9852 913d ed87 7bbd 782f 2f3c
00000110: 8b14 203d 9941 073c c18f 76bd c4eb 8f3d
00000120: 0e93 0a3d c7f7 5cbc a645 18bc 18b2 2bbb
00000130: b162 9fbc 39c7 2a3d 56ca 993c c13e 6c3d
00000140: 99d1 cebc 4ebe e73c 1cfe 81bd 5c2b 203d
00000150: 3b4d bb3c 3668 e03c 823b cd3b 3d78 613d
00000160: 9dd6 bdbb 7bb4 99bc 179d f83c 6dd6 25bd
00000170: 36e2 443d 99fe 523d 8447 213d 7a1c d03c
00000180: c984 433d 3313 9e3c e1e8 a2bc f769 3d3d
00000190: d05e 3fbd 56e5 193c d333 8b3d 8e03 50bd
000001a0: a1f4 deba d8dc e0bb 2e3b 9abd 5921 f2bc
000001b0: ebed 55bd 152a 3d3d db87 0a3d b276 2bbd
000001c0: 848f 843d 56d1 d43c ba0f 14bd b8e6 513d
000001d0: a09a 6e3d ea0a 8b3d 6e06 ee3b 7d25 9abc
000001e0: 05fb e6bc 12c9 b3bb 0824 b43b 0f00 45bd
000001f0: 1dba 3cbd 6ea4 403a 320e 63bb 1309 8e3d
00000200: 7b48 9dbd e841 72bc 818c 633d 0aac 163d
00000210: a77d 8ebd 2a37 3a3d af1e 0dbd ae07 be3c
00000220: 9836 d03c 9371 743d a243 743d dab6 4e3d
00000230: 47f9 163d b96d 25bd dea7 3cbc ade6 343d
00000240: 44cb b73b 35b6 993d d6ba 933d 5351 61bd
00000250: a8cc 3abc 0083 9bbd 2734 4a3d f150 083d
00000260: 2706 92bd d69e b6bc b042 573c 1ed8 833d
00000270: fe0a 9d3b 12c1 9b3d c619 8dbd 5f0e 1cbd
00000280: a3e2 af3c 0750 8a3d 0a4e 02bd 2922 17bd
00000290: 8a4b 8e3d ee32 c13c d825 63bc 97b3 383d
000002a0: 31a8 d6bb 6263 f8bc 3e17 743d 7af1 f13c
000002b0: 967b c3bb d2a5 7dbd ac20 833d 4eb5 2abc
000002c0: 7613 04bb d916 733c 8534 18bd 3431 c2bc
000002d0: b212 5bbd 3391 073d b4b8 93bd 7901 99bd
000002e0: 97c3 3abd 06d6 343c 7474 09bb a70d 97bd
000002f0: b50b 8abd 07fa 8ebd 53c7 c5bc b1cd 923d
00000300: 8aff e73c 95b5 88bb 2997 81bd dfa7 833c
00000310: cca5 85bd e051 93bc 06d5 2cbd c6f1 113d
00000320: b3ac 0c3d e5d8 683c 4a36 d53c 1c51 ee3b
00000330: d54c 83bd dbd4 8dbd f1d9 513d 1d84 a63c
00000340: 2602 5e3d 653b 14ba c597 54bd 94ef 67bd
00000350: afab 273d 9f86 683d a460 2a3d c685 7cbd
00000360: ee97 043d cf97 063d ad40 843d b853 843d
00000370: cf4f 2cbd 517c 79bd 902f 923d 4d68 97bd
00000380: b862 4ebd 0945 253c eabc 8fbd c5db 0f39
00000390: 3568 8eba a287 883d 449a 7ebd 2069 23bd
000003a0: 95f8 1e3d 9def 833d cc75 62bd 0c09 073c
000003b0: fe13 5fbd 365d 0bbc 1a43 caba f9d5 8b3d
000003c0: c93b 35bd 4c73 403d 7cf5 01bd 175a 893d
000003d0: 39a0 cfbc 4607 7d3d ddd0 8d3d 3202 db3c
000003e0: c186 41bc b7bb 1fbd 64cf 83bd 2280 ebbc
000003f0: ce7f b9bc 0c04 9abd bae8 023d b8ea bc3c

backbone.net.4.bias f4 [16]
0.0 0.0 0.0 0.0 0.0 0.0 0.0 0.0
0.0 0.0 0.0 0.0 0.0 0.0 0.0 0.0
00000000: 0000 0000 0000 0000 0000 0000 0000 0000
00000010: 0000 0000 0000 0000 0000 0000 0000 0000
00000020: 0000 0000 0000 0000 0000 0000 0000 0000
00000030: 0000 0000 0000 0000 0000 0000 0000 0000

backbone.net.5.weight f4 [16]
0.9999968 0.9999968 0.9999968 0.9999968 0.9999968 0.9999968 0.9999968 0.9999968
0.9999968 0.9999968 0.9999968 0.9999968 0.9999968 0.9999968 0.9999968 0.9999968
00000000: caff 7f3f caff 7f3f caff 7f3f caff 7f3f
00000010: caff 7f3f caff 7f3f caff 7f3f caff 7f3f
00000020: caff 7f3f caff 7f3f caff 7f3f caff 7f3f
00000030: caff 7f3f caff 7f3f caff 7f3f caff 7f3f

backbone.net.5.bias f4 [16]
0.0 0.0 0.0 0.0 0.0 0.0 0.0 0.0
0.0 0.0 0.0 0.0 0.0 0.0 0.0 0.0
00000000: 0000 0000 0000 0000 0000 0000 0000 0000
00000010: 0000 0000 0000 0000 0000 0000 0000 0000
00000020: 0000 0000 0000 0000 0000 0000 0000 0000
00000030: 0000 0000 0000 0000 0000 0000 0000 0000

backbone.net.5.running_mean f4 [16]
0.46169102 -1.3493172 -1.0307608 1.0830636 0.14739138 -0.8001453 -0.5053789 0.9599745
0.8993409 0.7132529 0.6165925 -0.007709249 -0.5428375 -0.27279678 0.6651084 1.2116152
00000000: c462 ec3e 6db6 acbf f8ef 83bf d4a1 8a3f
00000010: c4ed 163e 53d6 4cbf 8360 01bf e4c0 753f
00000020: 353b 663f be97 363f 02d9 1d3f de9d fcbb
00000030: 66f7 0abf 05ac 8bbe 8b44 2a3f 3516 9b3f

backbone.net.5.running_var f4 [16]
1.71283 1.9909801 1.1308236 1.2505254 1.1043189 1.6933051 1.3931805 0.6992995
0.99110234 1.4865276 0.57374746 0.459541 0.7069465 1.7731721 0.8406958 2.4396582
00000000: 033e db3f 70d8 fe3f d4be 903f 3711 a03f
00000010: 525a 8d3f 39be d83f bd53 b23f 4b05 333f
00000020: e2b8 7d3f 8946 be3f 1de1 123f f548 eb3e
00000030: 72fa 343f 4ef7 e23f d737 573f 5c23 1c40

momentum_buffer f4 [96, 3, 11, 11]
-3.1427866e-05 -9.3669456e-05 7.599485e-05 6.773146e-05 -1.0579927e-05 8.153877e-05 -1.347191e-05 4.174789e-05
6.2641047e-06 2.8335166e-05 -9.391342e-05 0.000104846345 7.22294e-05 8.511723e-05 -3.633675e-06 9.1158894e-05
2.2328592e-05 -9.1310816e-05 1.0879497e-05 2.7205428e-05 9.8927354e-05 9.574965e-05 -3.367259e-05 5.159375e-05
-1.4173949e-05 -4.1068826e-05 8.968566e-05 7.239216e-05 5.6565048e-05 -2.7752161e-05 -7.8136094e-05 7.726218e-05
-1.1902795e-05 -0.00010343699 -8.645957e-05 -0.00010760197 -2.1600723e-05 -5.1249415e-05 1.2548537e-05 -8.6968275e-06
3.9697345e-05 6.383032e-05 4.9467388e-05 5.7750447e-05 0.00011153084 -1.4569043e-05 5.019902e-05 1.4750996e-05
-2.196874e-05 -8.484045e-05 -1.0992666e-05 2.330806e-06 4.9744856e-05 3.143645e-05 -5.506831e-05 9.491306e-05
3.4166674e-06 -1.1343756e-06 -0.000103897706 0.00010917503 2.8600705e-06 -8.620084e-05 7.4031e-05 -9.75016e-06
8.5439846e-05 9.454439e-05 -1.00150855e-05 5.4441523e-05 5.887451e-05 8.491867e-05 0.00010286088 2.8258804e-05
4.327679e-05 -7.836143e-05 -5.446797e-05 4.4581368e-05 -2.0700869e-05 -1.513473e-05 -0.00010204445 8.434663e-05
8.717043e-05 -8.8627305e-05 -3.4699979e-06 9.745111e-06 0.00011048732 1.1334408e-05 5.946219e-05 -2.3848319e-05
3.0651576e-05 8.4761e-05 5.872599e-06 -1.033249e-05 7.8242985e-05 1.6871401e-05 6.103627e-05 6.2531915e-05
6.792654e-05 6.040166e-05 -7.930818e-05 5.250328e-05 -2.3261651e-07 0.0001038622 -0.00010793084 7.3175564e-05
2.8195358e-05 5.6810757e-05 4.284285e-05 -1.913752e-05 -2.9331608e-05 2.9027855e-05 5.3311276e-05 -1.4143117e-05
-3.5173773e-05 8.187877e-06 3.4822562e-05 -9.548961e-05 1.6884735e-05 8.817684e-05 -1.7956178e-05 8.9734116e-05
9.067439e-05 -9.828809e-05 -4.1174764e-05 -3.4816303e-06 2.1175858e-06 1.4098907e-05 -3.8732698e-05 -9.0365815e-05
-0.00011009777 -7.210032e-05 2.5922349e-05 5.8699923e-05 -9.807992e-05 2.4833902e-05 8.131279e-06 -5.429164e-05
-8.673388e-05 1.3620112e-05 -3.5190944e-05 9.7871685e-05 -4.625225e-05 -8.491743e-05 4.901577e-05 -7.8310135e-05
9.075399e-05 -9.983132e-05 -6.0807222e-05 9.6073214e-05 3.7209804e-05 -5.4069576e-05 4.551349e-05 2.6236106e-05
5.7368385e-07 -5.5606804e-05 5.3838456e-05 -3.8281796e-06 -1.5169346e-05 -8.246958e-05 -6.0662904e-05 -7.849116e-05
-8.8428445e-05 8.69897e-05 5.4049895e-05 -1.989433e-05 -8.670296e-05 -7.150122e-05 2.3787019e-05 -3.9464878e-05
8.02569e-05 -1.7559929e-05 -0.00010796082 -9.8512406e-05 5.9286438e-05 -8.750048e-05 -9.5575466e-05 -2.178837e-05
-0.000107832835 7.432968e-05 4.083834e-06 5.2568535e-06 -7.08466e-05 -1.7506087e-05 -4.485709e-05 -1.3086776e-05
-7.074889e-05 5.1402017e-06 0.000108903856 -4.5242574e-05 -3.778828e-05 5.075236e-05 9.792458e-05 -5.8708727e-05
-1.4564113e-05 -0.00011090678 1.902518e-05 9.532117e-05 -7.686251e-05 -4.6952453e-05 -5.5107753e-06 -2.6727197e-05
-9.3693685e-05 4.6086978e-05 4.76532e-05 7.330209e-05 -4.976108e-05 9.127982e-05 -4.638591e-05 0.00010133417
0.00010504782 7.38726e-05 5.4565215e-05 2.5153771e-05 0.00010846366 7.952966e-05 -1.2431003e-05 -8.757505e-05
2.6259862e-05 1.4062418e-05 -7.374731e-05 3.4980778e-05 3.525177e-05 -1.97477e-05 -3.928196e-05 -5.6133e-05
-6.280444e-06 -8.9871995e-05 8.915219e-05 0.000104552324 4.268711e-05 -9.2944116e-05 -6.536914e-05 -5.034989e-05
-7.761128e-05 -7.009726e-05 -0.00010746591 4.911556e-05 -9.497418e-05 -5.2875446e-05 2.9129427e-05 -8.329155e-05
3.39891e-05 8.40465e-05 1.993171e-05 -2.3345496e-05 -4.5373105e-05 -7.4319134e-05 -5.935323e-05 5.9016937e-05
9.7865064e-05 7.6895034e-05 1.7028301e-06 -3.46005e-05 5.315368e-05 -3.881339e-05 4.0833016e-05 -1.7288554e-05
00000000: 6ad1 03b8 6870 c4b8 6d5f 9f38 0d0b 8e38
00000010: 7180 31b7 cbff aa38 6a05 62b7 751a 2f38
00000020: 4030 d236 4eb1 ed37 62f3 c4b8 f4e0 db38
00000030: dd79 9738 f780 b238 10da 73b6 8f2c bf38
00000040: 494e bb37 1f7e bfb8 1587 3637 3637 e437
00000050: 3877 cf38 34cd c838 ab3b 0db8 5e66 5838
00000060: a6cc 6db7 5141 2cb8 9f15 bc38 3fd1 9738
00000070: 4240 6d38 50cd e8b7 ffdc a3b8 d107 a238
00000080: 1eb2 47b7 50ec d8b8 a151 b5b8 5ea8 e1b8
00000090: 3333 b5b7 a4f4 56b8 8e87 5237 97e8 11b7
000000a0: b380 2638 a4dc 8538 347b 4f38 1239 7238
000000b0: aae5 e938 906d 74b7 ca8c 5238 0c7b 7737
000000c0: 8349 b8b7 5fec b1b8 246d 38b7 f16a 1c36
000000d0: 22a5 5038 a2da 0338 26f9 66b8 100c c738
000000e0: e649 6536 d940 98b5 a8e3 d9b8 e6f4 e438
000000f0: a3ef 3f36 b9c6 b4b8 1741 9b38 9e94 23b7
00000100: 2b2e b338 2246 c638 7706 28b7 2458 6438
00000110: 06f0 7638 5d16 b238 04b7 d738 520d ed37
00000120: 1984 3538 f955 a4b8 8a74 64b8 e1fc 3a38
00000130: c7a6 adb7 2ceb 7db7 b200 d6b8 41e3 b038
00000140: 45cf b638 6cdd b9b8 1cde 68b6 ef7e 2337
00000150: 6eb5 e738 e928 3e37 0a67 7938 e00d c8b7
00000160: e18f 0038 b7c1 b138 3e0d c536 b559 2db7
00000170: 6216 a438 0f87 8d37 9900 8038 9123 8338
00000180: c973 8e38 ca57 7d38 4152 a6b8 f836 5c38
00000190: 24c5 79b4 98d0 d938 ee58 e2b8 d575 9938
000001a0: 1285 ec37 1648 6e38 29b2 3338 8389 a0b7
000001b0: 260d f6b7 d880 f337 8c9a 5f38 3a48 6db7
000001c0: 8d87 13b8 aa5e 0937 710e 1238 9841 c8b8
000001d0: b1a3 8d37 95eb b838 99a0 96b7 a32f bc38
000001e0: 7128 be38 0420 ceb8 11b3 2cb8 f4a5 69b6
000001f0: d91b 0e36 588a 6c37 eb74 22b8 c782 bdb8
00000200: 4ae4 e6b8 9134 97b8 d273 d937 9034 7638
00000210: 42b0 cdb8 6652 d037 946b 0837 34b7 63b8
00000220: e6e4 b5b8 f081 6437 fd99 13b8 7640 cd38
00000230: fafe 41b8 b315 b2b8 4896 4d38 6f3a a4b8
00000240: 2d53 be38 885c d1b8 420b 7fb8 ea7a c938
00000250: b911 1c38 c4c8 62b8 bde5 3e38 9c15 dc37
00000260: 41ff 1935 5a3b 69b8 9ad0 6138 d073 80b6
00000270: d87f 7eb7 85f3 acb8 4c70 7eb8 9f9b a4b8
00000280: a972 b9b8 3d6e b638 a2b3 6238 c0e2 a6b7
00000290: 4cd4 b5b8 edf2 95b8 3c8a c737 1787 25b8
000002a0: 984f a838 a94d 93b7 0669 e2b8 7298 ceb8
000002b0: 54aa 7838 7680 b7b8 b06f c8b8 2bc6 b6b7
000002c0: 5024 e2b8 71e1 9b38 de07 8936 0764 b036
000002d0: 7b93 94b8 09da 92b7 ef24 3cb8 468f 5bb7
000002e0: 055f 94b8 ff79 ac36 5063 e438 d8c2 3db8
000002f0: db7e 1eb8 eede 5438 dc5c cd38 043e 76b8
00000300: 6458 74b7 a096 e8b8 4398 9f37 2ae7 c738
00000310: 3f31 a1b8 d0ee 44b8 33e9 b8b6 3834 e0b7
00000320: 6a7d c4b8 844d 4138 3cdf 4738 c3b9 9938
00000330: 8eb6 50b8 7b6d bf38 7e8e 42b8 5e83 d438
00000340: 1e4d dc38 0dec 9a38 f4dc 6438 5001 d337
00000350: fc76 e338 29c9 a638 c08e 50b7 7fa8 b7b8
00000360: a048 dc37 a0ed 6b37 c9a8 9ab8 53b8 1238
00000370: 4ddb 1338 dda7 a5b7 afc2 24b8 5a70 6bb8
00000380: 9abc d2b6 a979 bcb8 38f7 ba38 1a43 db38
00000390: ef0a 3338 feea c2b8 ca16 89b8 c82e 53b8
000003a0: 3dc3 a2b8 2e01 93b8 525f e1b8 6e01 4e38
000003b0: e02c c7b8 94c6 5db8 f85a f437 cfac aeb8
000003c0: 858f 0e38 1f42 b038 0533 a737 12d6 c3b7
000003d0: 004f 3eb8 c8db 9bb8 0cf2 78b8 f488 7738
000003e0: e83c cd38 b542 a138 cc8c e435 0120 11b8
000003f0: 54f1 5e38 8fcb 22b8 1e44 2b38 e306 91b7

momentum_buffer f4 [96]
0.0 0.0 0.0 0.0 0.0 0.0 0.0 0.0
0.0 0.0 0.0 0.0 0.0 0.0 0.0 0.0
0.0 0.0 0.0 0.0 0.0 0.0 0.0 0.0
0.0 0.0 0.0 0.0 0.0 0.0 0.0 0.0
0.0 0.0 0.0 0.0 0.0 0.0 0.0 0.0
0.0 0.0 0.0 0.0 0.0 0.0 0.0 0.0
0.0 0.0 0.0 0.0 0.0 0.0 0.0 0.0
0.0 0.0 0.0 0.0 0.0 0.0 0.0 0.0
0.0 0.0 0.0 0.0 0.0 0.0 0.0 0.0
0.0 0.0 0.0 0.0 0.0 0.0 0.0 0.0
0.0 0.0 0.0 0.0 0.0 0.0 0.0 0.0
0.0 0.0 0.0 0.0 0.0 0.0 0.0 0.0
00000000: 0000 0000 0000 0000 0000 0000 0000 0000
00000010: 0000 0000 0000 0000 0000 0000 0000 0000
00000020: 0000 0000 0000 0000 0000 0000 0000 0000
00000030: 0000 0000 0000 0000 0000 0000 0000 0000
00000040: 0000 0000 0000 0000 0000 0000 0000 0000
00000050: 0000 0000 0000 0000 0000 0000 0000 0000
00000060: 0000 0000 0000 0000 0000 0000 0000 0000
00000070: 0000 0000 0000 0000 0000 0000 0000 0000
00000080: 0000 0000 0000 0000 0000 0000 0000 0000
00000090: 0000 0000 0000 0000 0000 0000 0000 0000
000000a0: 0000 0000 0000 0000 0000 0000 0000 0000
000000b0: 0000 0000 0000 0000 0000 0000 0000 0000
000000c0: 0000 0000 0000 0000 0000 0000 0000 0000
000000d0: 0000 0000 0000 0000 0000 0000 0000 0000
000000e0: 0000 0000 0000 0000 0000 0000 0000 0000
000000f0: 0000 0000 0000 0000 0000 0000 0000 0000
00000100: 0000 0000 0000 0000 0000 0000 0000 0000
00000110: 0000 0000 0000 0000 0000 0000 0000 0000
00000120: 0000 0000 0000 0000 0000 0000 0000 0000
00000130: 0000 0000 0000 0000 0000 0000 0000 0000
00000140: 0000 0000 0000 0000 0000 0000 0000 0000
00000150: 0000 0000 0000 0000 0000 0000 0000 0000
00000160: 0000 0000 0000 0000 0000 0000 0000 0000
00000170: 0000 0000 0000 0000 0000 0000 0000 0000

momentum_buffer f4 [96]
0.004999979 0.004999979 0.004999979 0.004999979 0.004999979 0.004999979 0.004999979 0.004999979
0.004999979 0.004999979 0.004999979 0.004999979 0.004999979 0.004999979 0.004999979 0.004999979
0.004999979 0.004999979 0.004999979 0.004999979 0.004999979 0.004999979 0.004999979 0.004999979
0.004999979 0.004999979 0.004999979 0.004999979 0.004999979 0.004999979 0.004999979 0.004999979
0.004999979 0.004999979 0.004999979 0.004999979 0.004999979 0.004999979 0.004999979 0.004999979
0.004999979 0.004999979 0.004999979 0.004999979 0.004999979 0.004999979 0.004999979 0.004999979
0.004999979 0.004999979 0.004999979 0.004999979 0.004999979 0.004999979 0.004999979 0.004999979
0.004999979 0.004999979 0.004999979 0.004999979 0.004999979 0.004999979 0.004999979 0.004999979
0.004999979 0.004999979 0.004999979 0.004999979 0.004999979 0.004999979 0.004999979 0.004999979
0.004999979 0.004999979 0.004999979 0.004999979 0.004999979 0.004999979 0.004999979 0.004999979
0.004999979 0.004999979 0.004999979 0.004999979 0.004999979 0.004999979 0.004999979 0.004999979
0.004999979 0.004999979 0.004999979 0.004999979 0.004999979 0.004999979 0.004999979 0.004999979
00000000: ddd6 a33b ddd6 a33b ddd6 a33b ddd6 a33b
00000010: ddd6 a33b ddd6 a33b ddd6 a33b ddd6 a33b
00000020: ddd6 a33b ddd6 a33b ddd6 a33b ddd6 a33b
00000030: ddd6 a33b ddd6 a33b ddd6 a33b ddd6 a33b
00000040: ddd6 a33b ddd6 a33b ddd6 a33b ddd6 a33b
00000050: ddd6 a33b ddd6 a33b ddd6 a33b ddd6 a33b
00000060: ddd6 a33b ddd6 a33b ddd6 a33b ddd6 a33b
00000070: ddd6 a33b ddd6 a33b ddd6 a33b ddd6 a33b
00000080: ddd6 a33b ddd6 a33b ddd6 a33b ddd6 a33b
00000090: ddd6 a33b ddd6 a33b ddd6 a33b ddd6 a33b
000000a0: ddd6 a33b ddd6 a33b ddd6 a33b ddd6 a33b
000000b0: ddd6 a33b ddd6 a33b ddd6 a33b ddd6 a33b
000000c0: ddd6 a33b ddd6 a33b ddd6 a33b ddd6 a33b
000000d0: ddd6 a33b ddd6 a33b ddd6 a33b ddd6 a33b
000000e0: ddd6 a33b ddd6 a33b ddd6 a33b ddd6 a33b
000000f0: ddd6 a33b ddd6 a33b ddd6 a33b ddd6 a33b
00000100: ddd6 a33b ddd6 a33b ddd6 a33b ddd6 a33b
00000110: ddd6 a33b ddd6 a33b ddd6 a33b ddd6 a33b
00000120: ddd6 a33b ddd6 a33b ddd6 a33b ddd6 a33b
00000130: ddd6 a33b ddd6 a33b ddd6 a33b ddd6 a33b
00000140: ddd6 a33b ddd6 a33b ddd6 a33b ddd6 a33b
00000150: ddd6 a33b ddd6 a33b ddd6 a33b ddd6 a33b
00000160: ddd6 a33b ddd6 a33b ddd6 a33b ddd6 a33b
00000170: ddd6 a33b ddd6 a33b ddd6 a33b ddd6 a33b

momentum_buffer f4 [96]
0.0 0.0 0.0 0.0 0.0 0.0 0.0 0.0
0.0 0.0 0.0 0.0 0.0 0.0 0.0 0.0
0.0 0.0 0.0 0.0 0.0 0.0 0.0 0.0
0.0 0.0 0.0 0.0 0.0 0.0 0.0 0.0
0.0 0.0 0.0 0.0 0.0 0.0 0.0 0.0
0.0 0.0 0.0 0.0 0.0 0.0 0.0 0.0
0.0 0.0 0.0 0.0 0.0 0.0 0.0 0.0
0.0 0.0 0.0 0.0 0.0 0.0 0.0 0.0
0.0 0.0 0.0 0.0 0.0 0.0 0.0 0.0
0.0 0.0 0.0 0.0 0.0 0.0 0.0 0.0
0.0 0.0 0.0 0.0 0.0 0.0 0.0 0.0
0.0 0.0 0.0 0.0 0.0 0.0 0.0 0.0
00000000: 0000 0000 0000 0000 0000 0000 0000 0000
00000010: 0000 0000 0000 0000 0000 0000 0000 0000
00000020: 0000 0000 0000 0000 0000 0000 0000 0000
00000030: 0000 0000 0000 0000 0000 0000 0000 0000
00000040: 0000 0000 0000 0000 0000 0000 0000 0000
00000050: 0000 0000 0000 0000 0000 0000 0000 0000
00000060: 0000 0000 0000 0000 0000 0000 0000 0000
00000070: 0000 0000 0000 0000 0000 0000 0000 0000
00000080: 0000 0000 0000 0000 0000 0000 0000 0000
00000090: 0000 0000 0000 0000 0000 0000 0000 0000
000000a0: 0000 0000 0000 0000 0000 0000 0000 0000
000000b0: 0000 0000 0000 0000 0000 0000 0000 0000
000000c0: 0000 0000 0000 0000 0000 0000 0000 0000
000000d0: 0000 0000 0000 0000 0000 0000 0000 0000
000000e0: 0000 0000 0000 0000 0000 0000 0000 0000
000000f0: 0000 0000 0000 0000 0000 0000 0000 0000
00000100: 0000 0000 0000 0000 0000 0000 0000 0000
00000110: 0000 0000 0000 0000 0000 0000 0000 0000
00000120: 0000 0000 0000 0000 0000 0000 0000 0000
00000130: 0000 0000 0000 0000 0000 0000 0000 0000
00000140: 0000 0000 0000 0000 0000 0000 0000 0000
00000150: 0000 0000 0000 0000 0000 0000 0000 0000
00000160: 0000 0000 0000 0000 0000 0000 0000 0000
00000170: 0000 0000 0000 0000 0000 0000 0000 0000

momentum_buffer f4 [16, 96, 3, 3]
0.00026058045 0.00015723814 0.00011593789 4.500581e-05 -0.00024382377 -0.0001606302 -0.0003254918 -0.00030749777
-3.2177275e-05 0.00037548487 0.00026904355 2.1881848e-05 0.00015429516 -0.00022671028 0.0003340265 -0.0001987332
-0.00015699353 -6.5064894e-05 -0.000105443774 0.00024185519 -6.465733e-05 1.1823178e-05 0.00022977695 -0.00020324998
-0.00028226912 0.00018017109 -4.147377e-05 0.00019818111 -2.414536e-05 0.00012520011 -0.0001688075 0.00020540468
0.00031106823 -0.0002629041 0.0001053243 0.00038274482 -0.00029617376 -0.0002313618 0.00035679238 -0.0003468607
4.6998728e-05 0.00035216546 2.3888937e-05 4.8366972e-05 0.0002675156 0.0001702589 -0.00016231836 -3.6671347e-05
0.0002864781 4.424434e-06 0.0002795808 0.00010391779 0.0002920448 7.867712e-06 -0.00033026512 -0.00032054298
-0.00018077937 0.00017532938 3.050129e-05 0.00019232454 0.00017897201 0.00020665454 -1.11324725e-05 -0.00033022728
-0.00018939044 0.0003547915 -0.00030704433 5.3462325e-05 0.00019541028 4.127692e-05 -0.00030097822 0.00035136947
0.0001691582 -6.743398e-05 -4.646973e-05 -1.3099336e-05 -9.728117e-05 0.00020846931 9.3866125e-05 0.000288385
-0.00012623206 0.0001414448 -0.00031736455 0.00019551913 0.00011431979 0.00013696718 3.131596e-05 0.00027523123
-2.896701e-05 -9.381403e-05 0.0001517416 -0.00020243842 0.0002403364 0.0002575615 0.00019687405 0.00012702092
0.00023867021 9.648125e-05 -9.943209e-05 0.00023121803 -0.00023360629 4.696526e-05 0.0003398496 -0.00025392295
-8.505079e-06 -3.431128e-05 -0.00037654076 -0.00014778449 -0.00026114404 0.00023091346 0.0001691048 -0.00020930605
0.0003236341 0.00012989354 -0.0001807389 0.00025622695 0.00029126453 0.0003394593 3.6319736e-05 -9.408346e-05
-0.00014097929 -2.7433074e-05 2.748728e-05 -0.00024047872 -0.00023037955 3.674359e-06 -1.7322951e-05 0.00034676612
-0.00038399163 -7.393103e-05 0.00027776937 0.00018392576 -0.00034787788 0.00022731375 -0.00017226533 0.000115985036
0.0001270832 0.00029839293 0.00029817378 0.0002523365 0.00018429407 -0.00020193914 -5.7573132e-05 0.00022082636
2.8044728e-05 0.0003752727 0.00036066843 -0.00027504584 -5.7006626e-05 -0.0003796671 0.0002468305 0.00016640149
-0.00035650367 -0.00011146259 6.5692235e-05 0.00032188496 2.3962843e-05 0.00038025907 -0.0003444838 -0.00019049813
0.00010735182 0.000337677 -0.00015906339 -0.00018448892 0.0003474 0.000117919204 -6.931996e-05 0.00022546566
-3.2754037e-05 -0.00015160408 0.0002979622 0.0001476704 -2.9828283e-05 -0.00030962846 0.00032013553 -5.2095973e-05
-1.0076595e-05 7.4184885e-05 -0.00018579714 -0.00011852544 -0.0002674229 0.00016548719 -0.00036064806 -0.0003735489
-0.00022798328 5.5186763e-05 -1.0486968e-05 -0.00036878226 -0.00033702565 -0.00034906386 -0.00012071441 0.00035840677
0.00014160037 -2.0860176e-05 -0.00031638288 8.0356214e-05 -0.00032628808 -8.9916815e-05 -0.0002109766 0.00017815478
0.00017172181 7.105928e-05 0.00013013423 3.636423e-05 -0.00032055666 -0.00034626815 0.00025616598 0.00010163328
0.00027100617 -2.827299e-06 -0.00025951263 -0.0002831245 0.00020467592 0.0002838448 0.00020798022 -0.00030825476
0.00016185721 0.000164298 0.00032288235 0.00032306396 -0.00021034142 -0.0003045478 0.0003568986 -0.00036964694
-0.00025193545 5.0436254e-05 -0.00035092243 6.8597006e-07 -5.432395e-06 0.0003333245 -0.00031079407 -0.00019947579
0.00019405637 0.00032210906 -0.0002764405 4.1209507e-05 -0.00027231182 -4.253053e-05 -7.715681e-06 0.00034139588
-0.00022123221 0.0002349247 -0.00015864111 0.0003353315 -0.00012672471 0.00030887235 0.00034623002 0.00013367216
-5.9059537e-05 -0.00019498682 -0.00032180175 -0.00014373804 -0.00011321966 -0.00037601485 0.00015980103 0.00011530568
00000000: 849e 8839 4be0 2439 ae23 f338 9fc4 3c38
00000010: f2aa 7fb9 d76e 28b9 c5a6 aab9 a737 a1b9
00000020: 16f6 06b8 badc c439 6a0e 8d39 e98e b737
00000030: 4bca 2139 14b9 6db9 4720 af39 0a63 50b9
00000040: a19e 24b9 7373 88b8 b221 ddb8 829a 7d39
00000050: a498 87b8 2a5c 4637 48f0 7039 801f 55b9
00000060: 85fd 93b9 4fec 3c39 1ff4 2db8 d6ce 4f39
00000070: c48b cab7 2648 0339 eb01 31b9 e661 5739
00000080: df16 a339 64d6 89b9 8ee1 dc38 24ab c839
00000090: c547 9bb9 b699 72b9 dd0f bb39 dbda b5b9
000000a0: 8020 4538 d9a2 b839 1a65 c837 a4dd 4a38
000000b0: 5641 8c39 8787 3239 0134 2ab9 8fcf 19b8
000000c0: 7132 9639 9975 9436 b394 9239 70ee d938
000000d0: 971d 9939 91ff 0337 6f27 adb9 8d0e a8b9
000000e0: 988f 3db9 9fd8 3739 06dd ff37 baaa 4939
000000f0: 6faa 3b39 68b1 5839 9bc5 3ab7 5b22 adb9
00000100: 1c97 46b9 4f03 ba39 cbfa a0b9 bc3c 6038
00000110: 0ce7 4c39 c120 2d38 9dcc 9db9 0338 b839
00000120: 0f60 3139 586b 8db8 7ee8 42b8 38c5 5bb7
00000130: 6e03 ccb8 8e98 5a39 fed9 c438 6132 9739
00000140: 295d 04b9 cd50 1439 f363 a6b9 4404 4d39
00000150: f8be ef38 d99e 0f39 4259 0338 e94c 9039
00000160: 2efe f2b7 06be c4b8 d31c 1f39 a645 54b9
00000170: d002 7c39 5209 8739 fa6f 4e39 eb30 0539
00000180: 8c43 7a39 fa55 ca38 3286 d0b8 1e73 7239
00000190: 36f4 74b9 90fc 4438 d72d b239 f620 85b9
000001a0: 09b1 0eb7 75e9 0fb8 726a c5b9 99f6 1ab9
000001b0: 29ea 88b9 5c21 7239 b951 3139 2a79 5bb9
000001c0: 6fad a939 0834 0839 bb84 3db9 3356 8639
000001d0: ddb4 9839 75f9 b139 0556 1838 ac4e c5b8
000001e0: d7d3 13b9 1420 e6b7 7c94 e637 0429 7cb9
000001f0: 0a92 71b9 0295 7636 c150 91b7 29ce b539
00000200: 7c52 c9b9 6b0b 9bb8 93a1 9139 32dc 4039
00000210: 6163 b6b9 125b 6e39 1fa2 34b9 fe3c f338
00000220: a341 0539 9f71 9c39 3554 9c39 084c 8439
00000230: 103f 4139 a0bf 53b9 ae7a 71b8 a08d 6739
00000240: 9841 eb37 40c0 c439 1918 bd39 0734 90b9
00000250: 661a 6fb8 0e0e c7b9 0769 8139 0f7c 2e39
00000260: 1de9 bab9 06c1 e9b8 40c4 8938 abc2 a839
00000270: d003 c937 825d c739 d59b b4b9 74c0 47b9
00000280: 1222 e138 3d0a b139 41ca 26b9 5e73 41b9
00000290: 3d23 b639 644b f738 df5f 91b8 fa6a 6c39
000002a0: 6161 09b8 e9f7 1eb9 cf37 9c39 f9d7 1a39
000002b0: c037 fab7 a155 a2b9 ddd7 a739 a081 5ab8
000002c0: a50e 29b7 b593 9b38 8ad2 42b9 dc90 f8b8
000002d0: e534 8cb9 a186 2d39 5d15 bdb9 e2d8 c3b9
000002e0: cc0e 6fb9 5678 6738 2ff1 2fb7 1e59 c1b9
000002f0: d1b2 b0b9 8f02 b7b9 0e28 fdb8 8be8 bb39
00000300: 8f7a 1439 e3fc aeb7 31e0 a5b9 ea84 a838
00000310: a511 abb9 b991 bcb8 9a39 5db9 0fcf 3a39
00000320: 3910 3439 a905 9538 a474 0839 cb85 1838
00000330: 6310 a8b9 538b b5b9 044e 8639 f423 d538
00000340: d515 8e39 a1bc 3db6 320f 88b9 5470 94b9
00000350: 469e 5639 01d1 9439 4415 5a39 419d a1b9
00000360: 37b8 2939 6947 2c39 8948 a939 e960 a939
00000370: 188f 5cb9 b7ab 9fb9 1f1e bb39 2ccd c1b9
00000380: 3416 84b9 848b 5338 03fc b7b9 8123 3835
00000390: eb47 b6b6 0fc2 ae39 13f2 a2b9 602a 51b9
000003a0: 9c7b 4b39 bfe0 a839 37ef 90b9 5fd8 2c38
000003b0: 13c5 8eb9 cf62 32b8 9972 01b7 61fd b239
000003c0: 92fa 67b9 1e56 7639 e658 26b9 6fcf af39
000003d0: 68e1 04b9 25f0 a139 3586 b539 592a 0c39
000003e0: b2b6 77b8 6075 4cb9 80b7 a8b9 63b8 16b9
000003f0: 5870 edb8 dc23 c5b9 4390 2739 44d0 f138

momentum_buffer f4 [16]
0.0 0.0 0.0 0.0 0.0 0.0 0.0 0.0
0.0 0.0 0.0 0.0 0.0 0.0 0.0 0.0
00000000: 0000 0000 0000 0000 0000 0000 0000 0000
00000010: 0000 0000 0000 0000 0000 0000 0000 0000
00000020: 0000 0000 0000 0000 0000 0000 0000 0000
00000030: 0000 0000 0000 0000 0000 0000 0000 0000

momentum_buffer f4 [16]
0.004999979 0.004999979 0.004999979 0.004999979 0.004999979 0.004999979 0.004999979 0.004999979
0.004999979 0.004999979 0.004999979 0.004999979 0.004999979 0.004999979 0.004999979 0.004999979
00000000: ddd6 a33b ddd6 a33b ddd6 a33b ddd6 a33b
00000010: ddd6 a33b ddd6 a33b ddd6 a33b ddd6 a33b
00000020: ddd6 a33b ddd6 a33b ddd6 a33b ddd6 a33b
00000030: ddd6 a33b ddd6 a33b ddd6 a33b ddd6 a33b

momentum_buffer f4 [16]
0.0 0.0 0.0 0.0 0.0 0.0 0.0 0.0
0.0 0.0 0.0 0.0 0.0 0.0 0.0 0.0
00000000: 0000 0000 0000 0000 0000 0000 0000 0000
00000010: 0000 0000 0000 0000 0000 0000 0000 0000
00000020: 0000 0000 0000 0000 0000 0000 0000 0000
00000030: 0000 0000 0000 0000 0000 0000 0000 0000
