src/pretrained/siamfc_Con2Net_BalancedLoss_e801.pth (torch, 400885 bytes, 20 tensors)

backbone.net.0.weight f4 [96, 3, 11, 11]
-0.010640963 -0.019636862 -0.014705637 0.009750761 0.016170872 -0.009884452 -0.0069908113 -0.0023446921
-0.021019943 0.020399908 0.010767733 -0.021778129 -0.014424506 -0.011323205 -0.003305336 -0.01093781
-0.01804585 -0.007840266 -0.011003289 -0.013105884 0.00063665025 -0.013777198 0.02087395 -0.0060265744
-0.007819742 0.011663321 0.007168767 -0.01948187 -0.022307346 -0.0134085035 0.020805886 -0.01796946
0.008928524 0.0067809066 -0.009731162 0.0110483635 -0.0028169397 0.016435005 -0.014470039 0.013605445
0.0028344279 0.014145203 -0.014431952 0.0019274177 -0.0011639209 -0.016923763 -0.010539803 -0.008701352
0.015812974 -0.008165432 0.009247742 -0.0064068576 -0.008634648 -0.00042777287 0.0082797585 0.006389071
0.017692562 0.009875593 0.007362768 0.013877258 -0.0036037914 -0.00487821 0.0026923686 0.0046310183
-0.0044576908 0.0077902745 -0.009805682 0.017862247 -0.021399274 0.008235802 0.01271695 0.00906016
-0.01758409 0.0039008253 -0.010219881 -0.020893333 0.0056406637 0.021156644 -0.011412109 0.00503042
0.0039749136 -0.022348741 0.002275313 0.0100633195 0.006992788 -0.00031651495 -0.0014460462 0.011239042
-0.010806858 -0.0157649 0.022199059 -0.00971706 -0.0054045096 0.009507406 0.021336393 0.010442447
0.0031092803 0.01575306 -0.0036835677 -0.017169658 -0.017969156 0.006083369 -0.014330107 -0.01949344
0.0070958636 -0.01937854 0.017793518 0.00985426 0.015183796 0.021108389 0.017404538 -0.014391277
0.012769873 0.009756587 -0.017018411 -0.021002395 -0.0038856822 -0.009635539 0.020862376 0.021479849
-0.01599426 -0.0063619353 -0.01930858 -0.0159857 0.016238436 -0.01746468 -0.0207071 -0.018036604
-0.009050278 -0.0095338905 -0.014241646 -0.019245042 -0.02013837 -0.021112304 -0.004982331 0.01251904
0.020803485 0.0018528091 0.005050606 0.021335684 -0.012623986 0.018543378 -0.008542714 -0.013405024
0.017313877 -0.016364269 -0.01867308 -0.0051791994 0.014238767 0.021069948 -0.018635241 0.013169106
-0.0018222053 -0.0029728962 0.0047842963 0.001279829 0.003870603 -0.012257276 -0.01750016 -0.013176832
-0.021326216 -0.014582089 0.016692458 0.0091036605 0.006842253 -0.020917304 -0.01497064 -0.019722037
0.014497006 0.0005979867 -0.002713336 0.021426415 0.014383073 0.005174312 0.0127679575 0.004657198
0.0009212568 0.0022203827 0.018064601 0.013667391 -0.022032654 -0.004023702 -0.018950267 -0.001103775
-0.011800147 0.00152034 -0.0076001654 0.008250251 -0.012787257 -0.015885644 -0.0022568507 -0.0002570815
0.009433149 -0.009897547 -0.010201444 -0.012446966 -0.007180234 0.0026702087 -0.0027068448 -0.015563475
-0.0073727677 0.010182966 -0.015829027 -0.013417822 0.015069995 0.0016912795 -0.010938901 0.016711803
-0.020205028 -0.016847175 0.015199264 -0.021802 0.004201455 0.011128264 0.018541586 -0.014764259
-0.010586606 0.008710285 -0.0080275675 0.020110048 0.020837728 0.018513985 -0.022342557 0.01468385
-0.011171476 0.0024595356 0.022059552 -0.0081647225 0.011601249 0.019526549 -0.0038798128 0.014981479
-0.021345332 0.021227444 0.0073550018 -0.0018914888 -0.0024354605 0.01980143 -0.015123148 -0.007820382
0.011274073 -0.0033026547 -0.008419381 -0.0014295905 -0.0008138941 -0.02216067 -0.016198855 0.0046603996
0.013664038 0.012500835 0.006539505 0.011082087 -0.020440182 -0.021507896 -0.01865781 0.011328763
00000000: 6f57 2ebc 7cdd a0bc e9ef 70bc a8c1 1f3c
00000010: c778 843c 66f2 21bc 2d13 e5bb 68a9 19bb
00000020: 0432 acbc b51d a73c 256b 303c 0c68 b2bc
00000030: c354 6cbc f784 39bc 569e 58bb 8034 33bc
00000040: e4d4 93bc 7674 00bc 2447 34bc 10ba 56bc
00000050: e0e4 263a c2b9 61bc d9ff aa3c 927a c5bb
00000060: 601e 00bc 8417 3f3c fae7 ea3b 7198 9fbc
00000070: e5bd b6bc 57af 5bbc 1b71 aa3c b034 93bc
00000080: f248 123c 5e32 de3b 746f 1fbc 3204 353c
00000090: 689c 38bb b4a2 863c be13 6dbc 5fe9 5e3c
000000a0: cfc1 393b 48c1 673c fe73 6cbc 68a1 fc3a
000000b0: b48e 98ba b4a3 8abc 23af 2cbc 1e90 0ebc
000000c0: 368a 813c 4ec8 05bc d783 173c 9ef0 d1bb
000000d0: 5778 0dbc b446 e0b9 d3a7 073c 695b d13b
000000e0: feef 903c 3dcd 213c 6043 f13b 705d 633c
000000f0: 962d 6cbb 64d9 9fbb 7372 303b ccbf 973b
00000100: d211 92bb 8f45 ff3b 03a8 20bc d953 923c
00000110: 884d afbc 75ef 063c c15a 503c 1171 143c
00000120: 820c 90bc fda4 7f3b 4a71 27bc 7f28 abbc
00000130: 51d5 b83b b350 ad3c dbf9 3abc 39d6 a43b
00000140: fe3f 823b b514 b7bc 6b1d 153b 9fe0 243c
00000150: c223 e53b ebf1 a5b9 4289 bdba f523 383c
00000160: 3f0f 31bc 6425 81bc cdda b53c 4e34 1fbc
00000170: 5018 b1bb f3c4 1b3c a9c9 ae3c cc16 2b3c
00000180: 11c5 4b3b 900c 813c 0368 71bb 62a7 8cbc
00000190: 0d34 93bc ff56 c73b d3c8 6abc b5b0 9fbc
000001a0: 6b84 e83b bebf 9ebc b6c3 913c c373 213c
000001b0: 75c5 783c 80eb ac3c f693 8e3c 64c9 6bbc
000001c0: bb38 513c 18da 1f3c 326a 8bbc 370d acbc
000001d0: eea6 7ebb 61de 1dbc 93e7 aa3c 82f6 af3c
000001e0: 6506 83bc c877 d0bb 072d 9ebc 71f4 82bc
000001f0: 7806 853c 1712 8fbc f0a1 a9bc 80c1 93bc
00000200: 9e47 14bc 0934 1cbc cb55 69bc c7a7 9dbc
00000210: 39f9 a4bc b6f3 acbc d242 a3bb a91c 4d3c
00000220: 126c aa3c f5d9 f23a 8e7f a53b 2cc8 ae3c
00000230: d6d4 4ebc 48e8 973c bdf6 0bbc bfa0 5bbc
00000240: d5d5 8d3c 5c0e 86bc 49f8 98bc 46b6 a9bb
00000250: b849 693c e29a ac3c efa8 98bc 3cc3 573c
00000260: 10d7 eeba ecd4 42bb 96c5 9c3b efbf a73a
00000270: f1a9 7d3b bed2 48bc 7f5c 8fbc a4e3 57bc
00000280: 51b4 aebc b7e9 6ebc 9fbe 883c 8527 153c
00000290: fa34 e03b c45a abbc 6a47 75bc 1c90 a1bc
000002a0: da84 6d3c 35c2 1c3a 39d2 31bb 7386 af3c
000002b0: fba6 6b3c 468d a93b b230 513c 699b 983b
000002c0: 7f80 713a d783 113b 37fc 933c 31ed 5f3c
000002d0: d37d b4bc 42d9 83bb 973d 9bbc 8bac 90ba
000002e0: 6755 41bc 2546 c73a cf0a f9bb 102c 073c
000002f0: a581 51bc 9c22 82bc ace7 13bb e5c8 86b9
00000300: 7f8d 1a3c 5229 22bc f523 27bc 5cee 4bbc
00000310: 2b48 ebbb abfe 2e3b 5265 31bb f2fd 7ebc
00000320: 4297 f1bb 74d6 263c e0ab 81bc 6dd6 5bbc
00000330: 24e8 763c ecad dd3a 1439 33bc 31e7 883c
00000340: 0485 a5bc 1603 8abc 5506 793c 1c9a b2bc
00000350: 5cac 893b 5253 363c 86e4 973c cae5 71bc
00000360: 7273 2dbc 95b5 0e3c 0f86 03bc d4bd a43c
00000370: e2b3 aa3c a4aa 973c bd07 b7bc 8894 703c
00000380: 9108 37bc 2930 213b 3cb6 b43c 54c5 05bc
00000390: 2a13 3e3c 24f6 9f3c 7544 7ebb e174 753c
000003a0: 68dc aebc 2de5 ad3c 3a02 f13b d5eb f7ba
000003b0: 3f9c 1fbb 9c36 a23c 15c7 77bc 0f21 00bc
000003c0: e4b6 383c 5a71 58bb 72f1 09bc 1961 bbba
000003d0: 825b 55ba 4b8a b5bc 76b3 84bc 44b6 983b
000003e0: 21df 5f3c 4dd0 4c3c 5849 d63b a491 353c
000003f0: 2b72 a7bc 5431 b0bc 43d8 98bc 479c 393c

backbone.net.0.bias f4 [96]
0.0 0.0 0.0 0.0 0.0 0.0 0.0 0.0
0.0 0.0 0.0 0.0 0.0 0.0 0.0 0.0
0.0 0.0 0.0 0.0 0.0 0.0 0.0 0.0
0.0 0.0 0.0 0.0 0.0 0.0 0.0 0.0
0.0 0.0 0.0 0.0 0.0 0.0 0.0 0.0
0.0 0.0 0.0 0.0 0.0 0.0 0.0 0.0
0.0 0.0 0.0 0.0 0.0 0.0 0.0 0.0
0.0 0.0 0.0 0.0 0.0 0.0 0.0 0.0
0.0 0.0 0.0 0.0 0.0 0.0 0.0 0.0
0.0 0.0 0.0 0.0 0.0 0.0 0.0 0.0
0.0 0.0 0.0 0.0 0.0 0.0 0.0 0.0
0.0 0.0 0.0 0.0 0.0 0.0 0.0 0.0
00000000: 0000 0000 0000 0000 0000 0000 0000 0000
00000010: 0000 0000 0000 0000 0000 0000 0000 0000
00000020: 0000 0000 0000 0000 0000 0000 0000 0000
00000030: 0000 0000 0000 0000 0000 0000 0000 0000
00000040: 0000 0000 0000 0000 0000 0000 0000 0000
00000050: 0000 0000 0000 0000 0000 0000 0000 0000
00000060: 0000 0000 0000 0000 0000 0000 0000 0000
00000070: 0000 0000 0000 0000 0000 0000 0000 0000
00000080: 0000 0000 0000 0000 0000 0000 0000 0000
00000090: 0000 0000 0000 0000 0000 0000 0000 0000
000000a0: 0000 0000 0000 0000 0000 0000 0000 0000
000000b0: 0000 0000 0000 0000 0000 0000 0000 0000
000000c0: 0000 0000 0000 0000 0000 0000 0000 0000
000000d0: 0000 0000 0000 0000 0000 0000 0000 0000
000000e0: 0000 0000 0000 0000 0000 0000 0000 0000
000000f0: 0000 0000 0000 0000 0000 0000 0000 0000
00000100: 0000 0000 0000 0000 0000 0000 0000 0000
00000110: 0000 0000 0000 0000 0000 0000 0000 0000
00000120: 0000 0000 0000 0000 0000 0000 0000 0000
00000130: 0000 0000 0000 0000 0000 0000 0000 0000
00000140: 0000 0000 0000 0000 0000 0000 0000 0000
00000150: 0000 0000 0000 0000 0000 0000 0000 0000
00000160: 0000 0000 0000 0000 0000 0000 0000 0000
00000170: 0000 0000 0000 0000 0000 0000 0000 0000

backbone.net.1.weight f4 [96]
0.9999968 0.9999968 0.9999968 0.9999968 0.9999968 0.9999968 0.9999968 0.9999968
0.9999968 0.9999968 0.9999968 0.9999968 0.9999968 0.9999968 0.9999968 0.9999968
0.9999968 0.9999968 0.9999968 0.9999968 0.9999968 0.9999968 0.9999968 0.9999968
0.9999968 0.9999968 0.9999968 0.9999968 0.9999968 0.9999968 0.9999968 0.9999968
0.9999968 0.9999968 0.9999968 0.9999968 0.9999968 0.9999968 0.9999968 0.9999968
0.9999968 0.9999968 0.9999968 0.9999968 0.9999968 0.9999968 0.9999968 0.9999968
0.9999968 0.9999968 0.9999968 0.9999968 0.9999968 0.9999968 0.9999968 0.9999968
0.9999968 0.9999968 0.9999968 0.9999968 0.9999968 0.9999968 0.9999968 0.9999968
0.9999968 0.9999968 0.9999968 0.9999968 0.9999968 0.9999968 0.9999968 0.9999968
0.9999968 0.9999968 0.9999968 0.9999968 0.9999968 0.9999968 0.9999968 0.9999968
0.9999968 0.9999968 0.9999968 0.9999968 0.9999968 0.9999968 0.9999968 0.9999968
0.9999968 0.9999968 0.9999968 0.9999968 0.9999968 0.9999968 0.9999968 0.9999968
00000000: caff 7f3f caff 7f3f caff 7f3f caff 7f3f
00000010: caff 7f3f caff 7f3f caff 7f3f caff 7f3f
00000020: caff 7f3f caff 7f3f caff 7f3f caff 7f3f
00000030: caff 7f3f caff 7f3f caff 7f3f caff 7f3f
00000040: caff 7f3f caff 7f3f caff 7f3f caff 7f3f
00000050: caff 7f3f caff 7f3f caff 7f3f caff 7f3f
00000060: caff 7f3f caff 7f3f caff 7f3f caff 7f3f
00000070: caff 7f3f caff 7f3f caff 7f3f caff 7f3f
00000080: caff 7f3f caff 7f3f caff 7f3f caff 7f3f
00000090: caff 7f3f caff 7f3f caff 7f3f caff 7f3f
000000a0: caff 7f3f caff 7f3f caff 7f3f caff 7f3f
000000b0: caff 7f3f caff 7f3f caff 7f3f caff 7f3f
000000c0: caff 7f3f caff 7f3f caff 7f3f caff 7f3f
000000d0: caff 7f3f caff 7f3f caff 7f3f caff 7f3f
000000e0: caff 7f3f caff 7f3f caff 7f3f caff 7f3f
000000f0: caff 7f3f caff 7f3f caff 7f3f caff 7f3f
00000100: caff 7f3f caff 7f3f caff 7f3f caff 7f3f
00000110: caff 7f3f caff 7f3f caff 7f3f caff 7f3f
00000120: caff 7f3f caff 7f3f caff 7f3f caff 7f3f
00000130: caff 7f3f caff 7f3f caff 7f3f caff 7f3f
00000140: caff 7f3f caff 7f3f caff 7f3f caff 7f3f
00000150: caff 7f3f caff 7f3f caff 7f3f caff 7f3f
00000160: caff 7f3f caff 7f3f caff 7f3f caff 7f3f
00000170: caff 7f3f caff 7f3f caff 7f3f caff 7f3f

backbone.net.1.bias f4 [96]
0.0 0.0 0.0 0.0 0.0 0.0 0.0 0.0
0.0 0.0 0.0 0.0 0.0 0.0 0.0 0.0
0.0 0.0 0.0 0.0 0.0 0.0 0.0 0.0
0.0 0.0 0.0 0.0 0.0 0.0 0.0 0.0
0.0 0.0 0.0 0.0 0.0 0.0 0.0 0.0
0.0 0.0 0.0 0.0 0.0 0.0 0.0 0.0
0.0 0.0 0.0 0.0 0.0 0.0 0.0 0.0
0.0 0.0 0.0 0.0 0.0 0.0 0.0 0.0
0.0 0.0 0.0 0.0 0.0 0.0 0.0 0.0
0.0 0.0 0.0 0.0 0.0 0.0 0.0 0.0
0.0 0.0 0.0 0.0 0.0 0.0 0.0 0.0
0.0 0.0 0.0 0.0 0.0 0.0 0.0 0.0
00000000: 0000 0000 0000 0000 0000 0000 0000 0000
00000010: 0000 0000 0000 0000 0000 0000 0000 0000
00000020: 0000 0000 0000 0000 0000 0000 0000 0000
00000030: 0000 0000 0000 0000 0000 0000 0000 0000
00000040: 0000 0000 0000 0000 0000 0000 0000 0000
00000050: 0000 0000 0000 0000 0000 0000 0000 0000
00000060: 0000 0000 0000 0000 0000 0000 0000 0000
00000070: 0000 0000 0000 0000 0000 0000 0000 0000
00000080: 0000 0000 0000 0000 0000 0000 0000 0000
00000090: 0000 0000 0000 0000 0000 0000 0000 0000
000000a0: 0000 0000 0000 0000 0000 0000 0000 0000
000000b0: 0000 0000 0000 0000 0000 0000 0000 0000
000000c0: 0000 0000 0000 0000 0000 0000 0000 0000
000000d0: 0000 0000 0000 0000 0000 0000 0000 0000
000000e0: 0000 0000 0000 0000 0000 0000 0000 0000
000000f0: 0000 0000 0000 0000 0000 0000 0000 0000
00000100: 0000 0000 0000 0000 0000 0000 0000 0000
00000110: 0000 0000 0000 0000 0000 0000 0000 0000
00000120: 0000 0000 0000 0000 0000 0000 0000 0000
00000130: 0000 0000 0000 0000 0000 0000 0000 0000
00000140: 0000 0000 0000 0000 0000 0000 0000 0000
00000150: 0000 0000 0000 0000 0000 0000 0000 0000
00000160: 0000 0000 0000 0000 0000 0000 0000 0000
00000170: 0000 0000 0000 0000 0000 0000 0000 0000

backbone.net.1.running_mean f4 [96]
-55.85985 61.44155 7.2938075 -20.872324 -21.76303 -1.3185602 -33.66346 -32.8862
-46.036407 27.59209 -3.9853666 -19.214035 56.128845 -38.818924 14.835711 16.548859
-25.975088 -55.75804 6.215432 -9.181569 17.022125 21.73675 -3.8569398 -55.41434
-18.910471 -86.70422 -4.4952507 -26.62 46.088043 44.993523 96.228745 8.962238
29.1915 -4.353768 -57.850018 34.427895 9.644814 12.477577 16.80227 -16.962288
20.884434 -15.553881 -20.466606 7.580971 0.71055317 44.760452 -28.310055 -28.029634
-50.859177 -8.599092 -26.72663 -4.755478 -53.520596 -1.7808131 -33.490078 22.63055
-17.42412 9.113591 27.934605 -17.568743 24.837812 -7.342545 58.717247 -6.2396383
11.778198 5.2898397 1.7924948 17.43058 53.634228 -23.985838 -4.912933 -4.858413
-12.520153 5.5431147 -26.620039 -20.872166 -9.4413395 8.433902 19.891886 3.4767854
31.813166 -15.704331 9.773189 39.696945 -31.395086 26.394297 29.638767 -13.760103
-53.920376 22.99367 -78.131096 20.535152 -11.2187605 -73.01129 35.85244 -7.848104
00000000: 7d70 5fc2 26c4 7542 df66 e940 85fa a6c1
00000010: af1a aec1 95c6 a8bf 62a7 06c2 788b 03c2
00000020: 4825 38c2 9abc dc41 3f10 7fc0 58b6 99c1
00000030: f083 6042 9446 1bc2 125f 6d41 1064 8441
00000040: fbcc cfc1 3c08 5fc2 d2e4 c640 b5e7 12c1
00000050: 502d 8841 dde4 ad41 1ad8 76c0 49a8 5dc2
00000060: a548 97c1 9068 adc2 18d9 8fc0 c3f5 d4c1
00000070: 285a 3842 5ef9 3342 1e75 c042 5465 0f41
00000080: 3188 e941 1152 8bc0 6b66 67c2 2ab6 0942
00000090: 2851 1a41 28a4 4741 0d6b 8641 c4b2 87c1
000000a0: 5213 a741 b2dc 78c1 9cbb a3c1 5097 f240
000000b0: d0e6 353f b40a 3342 fe7a e2c1 b13c e0c1
000000c0: cc6f 4bc2 e195 09c1 23d0 d5c1 e02c 98c0
000000d0: 1715 56c2 aff1 e3bf d7f5 05c2 5e0b b541
000000e0: 9964 8bc1 45d1 1141 127a df41 c98c 8cc1
000000f0: d7b3 c641 21f6 eac0 76de 6a42 1eab c7c0
00000100: 8073 3c41 5e46 a940 7870 e53f d471 8b41
00000110: 7389 5642 ffe2 bfc1 bf36 9dc0 1f78 9bc0
00000120: 8c52 48c1 3261 b140 d7f5 d4c1 32fa a6c1
00000130: ba0f 17c1 43f1 0641 9522 9f41 a783 5e40
00000140: 5d81 fe41 f144 7bc1 fb5e 1c41 acc9 1e42
00000150: 2329 fbc1 8527 d341 321c ed41 6229 5cc1
00000160: 77ae 57c2 09f3 b741 1f43 9cc2 fe47 a441
00000170: 0b80 33c1 c805 92c2 e668 0f42 ab23 fbc0

backbone.net.1.running_var f4 [96]
479.70068 542.59174 21.05249 105.52101 92.12592 15.469018 196.17587 171.70857
319.35098 118.02906 19.26697 78.17964 446.7326 229.05353 72.73365 59.90488
127.708206 449.75943 18.657036 60.505234 66.62266 117.88574 15.975825 491.1773
65.79756 1062.5741 25.033558 127.25772 324.21417 319.87534 1344.77 30.855816
142.05913 44.37783 491.45175 223.92413 46.13532 67.41003 57.97933 66.70502
96.03619 57.42931 71.99609 42.899887 15.9900875 300.8597 132.38556 155.72966
449.39194 31.954882 151.08083 42.66314 411.89215 31.833303 197.39526 91.13827
89.4539 38.444687 120.95427 58.558506 124.39772 31.10515 520.99603 23.460924
53.196068 31.998955 13.1655 70.23938 410.61392 118.00334 26.168653 14.456263
36.006527 34.85142 137.15198 81.273415 56.080685 25.26684 76.19726 29.675373
176.73376 73.41812 34.13931 238.96292 157.7593 115.81891 155.96281 54.179996
442.477 92.759735 869.6777 75.45466 47.758488 785.6578 218.75362 37.802532
00000000: b0d9 ef43 dfa5 0744 806b a841 c20a d342
00000010: 7940 b842 1981 7741 062d 4443 65b5 2b43
00000020: edac 9f43 e10e ec42 c122 9a41 fa5b 9c42
00000030: c65d df43 b40d 6543 a177 9142 999e 6f42
00000040: 9a6a ff42 35e1 e043 9c41 9541 5c05 7242
00000050: cd3e 8542 80c5 eb42 fb9c 7f41 b296 f543
00000060: 5a98 8342 5fd2 8444 ba44 c841 f483 fe42
00000070: 6a1b a243 0bf0 9f43 a418 a844 b6d8 f641
00000080: 230f 0e43 e682 3142 d3b9 f543 94ec 5f43
00000090: 918a 3842 efd1 8642 d5ea 6742 f868 8542
000000a0: 8712 c042 9db7 6542 00fe 8f42 7c99 2b42
000000b0: 66d7 7f41 0b6e 9643 b462 0443 cbba 1b43
000000c0: 2bb2 e043 99a3 ff41 b114 1743 0ea7 2a42
000000d0: 32f2 cd43 9baa fe41 3065 4543 cb46 b642
000000e0: 66e8 b242 5cc7 1942 96e8 f142 e93b 6a42
000000f0: a2cb f842 59d7 f841 bf3f 0244 f9af bb41
00000100: c6c8 5442 dcfd ff41 e3a5 5241 907a 8c42
00000110: 954e cd43 b601 ec42 6759 d141 da4c 6741
00000120: af06 1042 db67 0b42 e826 0943 fd8b a242
00000130: 9f52 6042 7d22 ca41 ff64 9842 2a67 ed41
00000140: d8bb 3043 14d6 9242 a78e 0842 82f6 6e43
00000150: 61c2 1d43 48a3 e742 7bf6 1b43 51b8 5842
00000160: 0e3d dd43 fc84 b942 5f6b 5944 c9e8 9642
00000170: b108 3f42 196a 4444 edc0 5a43 cb35 1742

backbone.net.4.weight f4 [16, 96, 3, 3]
-0.032746963 -0.03560367 0.0097987065 -0.06130595 -0.030502183 -0.033569857 0.02568423 -0.0042369138
-0.010980084 -0.027537763 -0.041104995 0.022946814 0.038819276 -0.014868638 0.04637403 0.01284446
0.016010584 -0.049390968 -0.009500895 0.05681113 0.003438692 -0.07536424 -0.03595045 0.03414575
-0.02913358 0.06822347 -0.033617307 0.04064005 0.035219334 0.014120458 0.020728344 -0.07206223
0.0652275 0.03409683 -0.038278278 -0.047587592 0.04128954 -0.039153613 -0.009600058 -0.05777911
0.072972335 -0.075600564 -0.052843083 0.07175881 0.018142406 0.06758691 -0.0035542818 -0.05088514
0.0083552115 -0.072379865 0.008788904 0.010525155 -0.042046458 0.057686068 -0.067595355 0.036623072
0.055033974 -0.0011269565 -0.0016833575 0.018827032 0.054669067 -0.059941962 -0.04733647 0.016799655
-0.045578677 -0.0013227365 0.015493962 0.026964761 0.07342116 0.045458417 0.07356927 -0.06699769
-0.024043549 -0.023664147 0.024438428 0.064115144 0.040651046 0.015087245 -0.07197387 -0.01731728
-0.050117996 -0.065451905 0.029515237 0.032891817 -0.05934828 -0.0060075624 -0.06736899 0.008661459
-0.07064672 0.021952149 0.040063273 0.0018889419 -0.034894288 0.06967471 -0.0050690463 0.048395887
-0.016523354 -0.011840489 0.056094132 0.024795048 0.027639108 -0.0048801457 0.010045845 0.023609202
0.07282546 0.052139178 -0.045828078 -0.004111345 -0.0032347818 0.047431737 -0.044084396 0.043544587
0.044616565 -0.03523523 0.004010765 0.049215235 -0.036765527 0.050329633 -0.02876209 0.015812984
-0.052583568 0.07653847 -0.075092845 -0.017085252 -0.007366637 0.05018304 -0.0008415408 -0.0169043
-0.050734397 0.0015457311 -0.06440895 0.04708994 -0.032892693 0.037109226 -0.06339066 0.06887037
-0.027343031 0.07106057 -0.06744316 0.020786129 -0.067718714 -0.068505615 0.03971695 -0.0654432
-0.020560673 0.019228296 -0.005264743 0.01545446 -0.06853814 -0.02911824 0.05098054 0.047855243
-0.05371017 -0.016785279 0.036272764 -0.0579231 -0.04283061 0.0118076 -0.006018332 -0.0020718826
-0.02262345 0.056754753 -0.022498986 -0.057950925 0.063806504 0.0075304196 0.04518248 -0.06983905
0.048118625 -0.016188154 -0.031228144 0.033420026 0.015294466 0.065031804 -0.056661926 0.02109431
-0.06222937 0.02811975 -0.03313547 0.015128568 -0.053609047 -0.07542479 -0.033844918 0.053196076
0.0048175775 0.010198389 0.0025264893 0.02324045 -0.04532287 0.065048374 -0.020028008 0.051913127
0.06249547 -0.020018332 0.03640607 -0.032916788 0.06998838 0.027177703 -0.05317931 -0.01341726
-0.0542235 -0.0317429 0.03948497 0.01760574 0.047521602 -0.07303768 0.07008901 0.027601648
0.054115675 -0.047573917 -0.057934664 -0.0399955 0.02185601 -0.03251269 0.039835267 -0.014547563
0.008330739 0.06557107 -0.060763516 -0.014079962 0.010407145 0.034881715 0.039975833 0.009563104
0.036679056 0.017138321 -0.058270562 -0.06954376 -0.02848207 0.06375564 0.039960597 0.033695824
0.03935575 0.025400901 0.051638436 0.018288787 -0.04865109 0.054924656 -0.06246536 0.047071654
0.026589388 0.012488245 0.042945933 -0.032287683 -0.061677445 0.013026317 -0.055217165 -0.036306307
0.06396887 0.034887426 0.054231804 -0.036004722 -0.0018479868 0.038274728 -0.060339607 -0.072577894
00000000: ae21 06bd 27d5 11bd c18a 203c f31b 7bbd
00000010: b7df f9bc 8c80 09bd bc67 d23c cfd5 8abb
00000020: cfe5 33bc e096 e1bc b65d 28bd f5fa bb3c
00000030: f600 1f3d 969b 73bc b2f2 3d3d 9271 523c
00000040: a128 833c 2f4e 4abd a4a9 1bbc cab2 683d
00000050: ae5b 613b 9158 9abd c740 13bd 6adc 0b3d
00000060: 8ca9 eebc bfb8 8b3d 4db2 09bd 2e76 263d
00000070: 2642 103d 7e59 673c 7dce a93c 5d95 93bd
00000080: ff95 853d 1ea9 0b3d afc9 1cbd 35eb 42bd
00000090: 381f 293d 8a5f 20bd 9049 1dbc caa9 6cbd
000000a0: 8572 953d 78d4 9abd fd71 58bd 48f6 923d
000000b0: 629f 943c 026b 8a3d f4ee 68bb f06c 50bd
000000c0: 4ce4 083c e53b 94bd 56ff 0f3c b371 2c3c
000000d0: e838 2cbd 3a48 6c3d 6f6f 8abd 1302 163d
000000e0: 4e6b 613d 63b6 93ba 1ba4 dcba 263b 9a3c
000000f0: acec 5f3d b485 75bd e3e3 41bd 6e9f 893c
00000100: b5b0 3abd ac5f adba 63da 7d3c 34e5 dc3c
00000110: d55d 963d 9b32 3a3d 7cab 963d 1636 89bd
00000120: faf6 c4bc 50db c1bc 1933 c83c cd4e 833d
00000130: b681 263d 7e30 773c 0967 93bd f8dc 8dbc
00000140: 8748 4dbd a60b 86bd f0c9 f13c 92b9 063d
00000150: 2f17 73bd 16db c4bb c1f8 89bd cbe8 0d3c
00000160: 3aaf 90bd fed4 b33c 6319 243d 5f96 f73a
00000170: 50ed 0ebd 9db1 8e3d 3e1a a6bb c43a 463d
00000180: fc5b 87bc 9cfe 41bc f6c2 653d fc1e cb3c
00000190: 696b e23c a1e9 9fbb 5497 243c 1668 c13c
000001a0: 8425 953d e48f 553d 39b6 3bbd 76b8 86bb
000001b0: a2fe 53bb c847 423d d791 34bd cf5b 323d
000001c0: dcbf 363d d152 10bd bc6c 833b ea95 493d
000001d0: 7397 16bd 7226 4e3d 799e ebbc 3b8a 813c
000001e0: de61 57bd 34c0 9c3d 47ca 99bd 5ff6 8bbc
000001f0: d463 f1bb bb8c 4d3d d99a 5cba e37a 8abc
00000200: dfce 4fbd 219a ca3a d7e8 83bd 62e1 403d
00000210: 7dba 06bd d8ff 173d f6d2 81bd e90b 8d3d
00000220: 7efe dfbc 3488 913d a41f 8abd ac47 aa3c
00000230: 1cb0 8abd ac4c 8cbd 3eae 223d 1607 86bd
00000240: db6e a8bc a984 9d3c de83 acbb b434 7d3c
00000250: b95d 8cbd 6089 eebc f9d0 503d dc03 443d
00000260: 32ff 5bbd 4881 89bc c092 143d c640 6dbd
00000270: 266f 2fbd aa74 413c 6e35 c5bb 6cc8 07bb
00000280: d054 b9bc ac77 683d cb4f b8bc f35d 6dbd
00000290: fcac 823d bdc1 f63b 4411 393d c707 8fbd
000002a0: 0918 453d 059d 84bc 2ad2 ffbc 70e3 083d
000002b0: a495 7a3c 652f 853d 5616 68bd f9cd ac3c
000002c0: 39e4 7ebd 645b e63c 0fb9 07bd d0dd 773c
000002d0: 2995 5bbd 5078 9abd f8a0 0abd 21e4 593d
000002e0: c5dc 9d3b 2517 273c 7593 253b c262 be3c
000002f0: 79a4 39bd 1538 853d c711 a4bc dca2 543d
00000300: 40fb 7f3d 7cfd a3bc 881e 153d c1d3 06bd
00000310: 1156 8f3d c6a3 de3c 8cd2 59bd 11d4 5bbc
00000320: 7619 5ebd d804 02bd feba 213d ea39 903c
00000330: 03a6 423d c794 95bd d48a 8f3d da1c e23c
00000340: 66a8 5d3d dedc 42bd e64c 6dbd 52d2 23bd
00000350: 600b b33c 072c 05bd 4e2a 233d e758 6ebc
00000360: a77d 083c 204a 863d 2ae3 78bd a4af 66bc
00000370: bb82 2a3c 21e0 0e3d b3bd 233d 91ae 1c3c
00000380: c73c 163d aa65 8c3c 1dad 6ebd f56c 8ebd
00000390: 3b53 e9bc 5192 823d b9ad 233d a204 0a3d
000003a0: 7f33 213d 8d15 d03c d382 533d 5ed2 953c
000003b0: 5e46 47bd adf8 603d addb 7fbd 35ce 403d
000003c0: fdd1 d93c 7f9b 4c3c 13e8 2f3d 1740 04bd
000003d0: 7da1 7cbd 556c 553c 652b 62bd ecb5 14bd
000003e0: 1c02 833d 1ee6 0e3d 2b22 5e3d b079 13bd
000003f0: 2638 f2ba f6c5 1c3d aa26 77bd b8a3 94bd

backbone.net.4.bias f4 [16]
0.0 0.0 0.0 0.0 0.0 0.0 0.0 0.0
0.0 0.0 0.0 0.0 0.0 0.0 0.0 0.0
00000000: 0000 0000 0000 0000 0000 0000 0000 0000
00000010: 0000 0000 0000 0000 0000 0000 0000 0000
00000020: 0000 0000 0000 0000 0000 0000 0000 0000
00000030: 0000 0000 0000 0000 0000 0000 0000 0000

backbone.net.5.weight f4 [16]
0.9999968 0.9999968 0.9999968 0.9999968 0.9999968 0.9999968 0.9999968 0.9999968
0.9999968 0.9999968 0.9999968 0.9999968 0.9999968 0.9999968 0.9999968 0.9999968
00000000: caff 7f3f caff 7f3f caff 7f3f caff 7f3f
00000010: caff 7f3f caff 7f3f caff 7f3f caff 7f3f
00000020: caff 7f3f caff 7f3f caff 7f3f caff 7f3f
00000030: caff 7f3f caff 7f3f caff 7f3f caff 7f3f

backbone.net.5.bias f4 [16]
0.0 0.0 0.0 0.0 0.0 0.0 0.0 0.0
0.0 0.0 0.0 0.0 0.0 0.0 0.0 0.0
00000000: 0000 0000 0000 0000 0000 0000 0000 0000
00000010: 0000 0000 0000 0000 0000 0000 0000 0000
00000020: 0000 0000 0000 0000 0000 0000 0000 0000
00000030: 0000 0000 0000 0000 0000 0000 0000 0000

backbone.net.5.running_mean f4 [16]
-0.6818065 -1.0643746 0.09695429 0.3530834 -1.9571632 0.1758134 1.6751657 1.4601638
0.2894709 0.048640046 -0.30223736 -0.32665467 0.24568862 -0.07400822 -0.1503035 -0.47927883
00000000: df8a 2ebf 6d3d 88bf f98f c63d 59c7 b43e
00000010: 5384 fabf 6e08 343e d46b d63f a6e6 ba3f
00000020: 8835 943e c93a 473d dbbe 9abe 483f a7be
00000030: cc95 7b3e 9f91 97bd 29e9 19be 0964 f5be

backbone.net.5.running_var f4 [16]
0.72025245 0.76426345 0.5557901 1.741707 1.7021872 0.3164652 1.5443296 1.1359785
1.5155164 0.6297604 0.47078457 0.5961368 0.6480192 0.5167856 0.45849073 0.7707036
00000000: 7762 383f c5a6 433f 4348 0e3f 41f0 de3f
00000010: 45e1 d93f ba07 a23e 98ac c53f be67 913f
00000020: 71fc c13f fa37 213f ad0a f13e 6c9c 183f
00000030: 96e4 253f 104c 043f 4cbf ea3e d54c 453f

momentum_buffer f4 [96, 3, 11, 11]
-5.3204792e-05 -9.818426e-05 -7.352816e-05 4.875376e-05 8.085432e-05 -4.942224e-05 -3.495404e-05 -1.1723452e-05
-0.00010509962 0.00010199948 5.3838638e-05 -0.000108890614 -7.212245e-05 -5.661598e-05 -1.6526667e-05 -5.4689015e-05
-9.022917e-05 -3.9201306e-05 -5.5016433e-05 -6.552939e-05 3.18325e-06 -6.888595e-05 0.0001043697 -3.0132855e-05
-3.909868e-05 5.831659e-05 3.5843816e-05 -9.74093e-05 -0.00011153666 -6.704246e-05 0.0001040294 -8.984726e-05
4.4642595e-05 3.390451e-05 -4.865579e-05 5.5241806e-05 -1.4084691e-05 8.217498e-05 -7.235018e-05 6.802717e-05
1.417213e-05 7.072597e-05 -7.2159695e-05 9.637081e-06 -5.819603e-06 -8.4618754e-05 -5.2698968e-05 -4.3506745e-05
7.90648e-05 -4.0827123e-05 4.623868e-05 -3.2034262e-05 -4.3173215e-05 -2.138864e-06 4.1398755e-05 3.1945332e-05
8.846279e-05 4.937793e-05 3.681381e-05 6.9386246e-05 -1.801895e-05 -2.4391033e-05 1.3461833e-05 2.3155084e-05
-2.2288446e-05 3.895134e-05 -4.9028393e-05 8.9311165e-05 -0.00010699632 4.1178984e-05 6.358471e-05 4.5300778e-05
-8.792037e-05 1.950412e-05 -5.1099385e-05 -0.00010446661 2.8203307e-05 0.0001057832 -5.7060504e-05 2.515208e-05
1.9874557e-05 -0.00011174366 1.1376563e-05 5.0316565e-05 3.49639e-05 -1.5825733e-06 -7.230229e-06 5.6195175e-05
-5.403425e-05 -7.882447e-05 0.00011099526 -4.8585287e-05 -2.7022528e-05 4.7537003e-05 0.000106681924 5.2212206e-05
1.5546386e-05 7.8765246e-05 -1.8417819e-05 -8.5848245e-05 -8.984573e-05 3.0416835e-05 -7.165046e-05 -9.746714e-05
3.547929e-05 -9.689263e-05 8.896752e-05 4.9271264e-05 7.5918964e-05 0.000105541854 8.702266e-05 -7.195633e-05
6.384934e-05 4.8782902e-05 -8.509198e-05 -0.000105011946 -1.9428395e-05 -4.817765e-05 0.000104311854 0.00010739919
-7.9971236e-05 -3.1809654e-05 -9.654288e-05 -7.992845e-05 8.119214e-05 -8.732337e-05 -0.000103535436 -9.018297e-05
-4.5251374e-05 -4.7669426e-05 -7.120815e-05 -9.6225136e-05 -0.000100691774 -0.0001055615 -2.4911646e-05 6.259514e-05
0.000104017396 9.264043e-06 2.5253015e-05 0.00010667836 -6.3119885e-05 9.2716815e-05 -4.2713556e-05 -6.7025074e-05
8.6569366e-05 -8.1821294e-05 -9.336532e-05 -2.5895974e-05 7.119381e-05 0.000105349696 -9.3176146e-05 6.5845496e-05
-9.1110205e-06 -1.4864474e-05 2.392146e-05 6.399142e-06 1.9352998e-05 -6.1286344e-05 -8.750076e-05 -6.588413e-05
-0.00010663099 -7.291043e-05 8.346224e-05 4.5518293e-05 3.4211236e-05 -0.00010458645 -7.485318e-05 -9.861012e-05
7.2485e-05 2.9899325e-06 -1.35666705e-05 0.000107132015 7.1915296e-05 2.5871544e-05 6.383973e-05 2.3285978e-05
4.606283e-06 1.1101904e-05 9.032296e-05 6.833691e-05 -0.00011016318 -2.0118501e-05 -9.4751245e-05 -5.5188702e-06
-5.900071e-05 7.6016986e-06 -3.800081e-05 4.1251235e-05 -6.393625e-05 -7.942816e-05 -1.1284249e-05 -1.2854064e-06
4.716571e-05 -4.9487688e-05 -5.10072e-05 -6.22348e-05 -3.590115e-05 1.3351038e-05 -1.353422e-05 -7.7817334e-05
-3.68638e-05 5.0914794e-05 -7.914506e-05 -6.7089066e-05 7.534991e-05 8.456392e-06 -5.4694472e-05 8.355894e-05
-0.000101025085 -8.423582e-05 7.599624e-05 -0.00010900994 2.100726e-05 5.5641292e-05 9.2707865e-05 -7.382123e-05
-5.2933e-05 4.3551387e-05 -4.01378e-05 0.00010055018 0.0001041886 9.256984e-05 -0.00011171274 7.3419236e-05
-5.5857352e-05 1.2297671e-05 0.00011029771 -4.082359e-05 5.8006233e-05 9.763267e-05 -1.9399055e-05 7.490732e-05
-0.0001067266 0.00010613717 3.6774993e-05 -9.457438e-06 -1.2177299e-05 9.90071e-05 -7.56157e-05 -3.910188e-05
5.6370343e-05 -1.651326e-05 -4.2096883e-05 -7.147947e-06 -4.0694686e-06 -0.00011080332 -8.0994236e-05 2.3301985e-05
6.832017e-05 6.250412e-05 3.2697502e-05 5.541039e-05 -0.00010220088 -0.000107539396 -9.3288996e-05 5.6643774e-05
00000000: 3628 5fb8 46e8 cdb8 2133 9ab8 f47c 4c38
00000010: 5590 a938 ba4a 4fb8 9d9b 12b8 d8af 44b7
00000020: ee68 dcb8 8ee8 d538 ccd0 6138 345c e4b8
00000030: 7240 97b8 f276 6db8 bfa2 8ab7 e261 65b8
00000040: 6b39 bdb8 156c 24b8 72c1 66b8 d36c 89b8
00000050: d29f 5536 dd76 90b8 0ee1 da38 d0c5 fcb7
00000060: e3fd 23b8 f698 7438 0157 1638 3848 ccb8
00000070: cae8 e9b8 2699 8cb8 5c2a da38 616c bcb8
00000080: 9f3e 3b38 b134 0e38 c213 4cb8 70b3 6738
00000090: 4a4d 6cb7 5b55 ac38 b5ba 97b8 cfa9 8e38
000000a0: d6c4 6d37 b752 9438 7154 97b8 f3ae 2137
000000b0: 0246 c3b6 5975 b1b8 1609 5db8 037b 36b8
000000c0: 97cf a538 ca3d 2bb8 68f0 4138 875c 06b8
000000d0: e314 35b8 6789 0fb6 93a3 2d38 0afd 0538
000000e0: 1985 b938 261b 4f38 8768 1a38 7583 9138
000000f0: 6727 97b7 589b ccb7 22da 6137 2a3d c237
00000100: 13f8 bab7 af5f 2338 d6a3 4db8 914c bb38
00000110: 3663 e0b8 99b7 2c38 c858 8538 5701 3e38
00000120: e461 b8b8 c79c a337 8c53 56b8 1615 dbb8
00000130: 2496 ec37 ecd7 dd38 4054 6fb8 aefd d237
00000140: 49b8 a637 ec57 eab8 f7dd 3e37 000b 5338
00000150: 34a6 1238 ce68 d4b5 329b f2b6 1cb3 6b38
00000160: d6a2 62b8 914e a5b8 20c6 e838 0ec8 4bb8
00000170: 70ae e2b7 7862 4738 6cba df38 6efe 5a38
00000180: 9c69 8237 c52e a538 f77f 9ab7 6d09 b4b8
00000190: 8f6b bcb8 a827 ff37 0c43 96b8 4667 ccb8
000001a0: 99cf 1438 d632 cbb8 1394 ba38 9ea8 4e38
000001b0: af36 9f38 5a56 dd38 ef7f b638 43e7 96b8
000001c0: dae6 8538 3e9c 4c38 6973 b2b8 dc39 dcb8
000001d0: 29fa a2b7 5c12 4ab8 00c2 da38 803b e138
000001e0: 3bb6 a7b8 5b6b 05b8 1077 cab8 439f a7b8
000001f0: b345 aa38 6121 b7b8 2a21 d9b8 9d20 bdb8
00000200: 4bcc 3db8 a8f0 47b8 9655 95b8 7acc c9b8
00000210: 7c2a d3b8 e660 ddb8 5af9 d0b7 8345 8338
00000220: ea23 da38 c36c 1b37 70d6 d337 82b8 df38
00000230: 3b5f 84b8 f670 c238 5527 33b8 d08f 8cb8
00000240: 938c b538 7997 abb8 20cd c3b8 2e3b d9b7
00000250: e34d 9538 30ef dc38 9067 c3b8 8816 8a38
00000260: 89db 18b7 6e62 79b7 f2aa c837 36b8 d636
00000270: 3f58 a237 db86 80b8 9d80 b7b8 462b 8ab8
00000280: 149f dfb8 7de7 98b8 7308 af38 e5ea 3e38
00000290: 097e 0f38 6c55 dbb8 7ffa 9cb8 e8cc ceb8
000002a0: 1703 9838 a6a6 4836 689c 63b7 10ac e038
000002b0: 3bd1 9638 b806 d937 b2e1 8538 4256 c337
000002c0: ab8f 9a36 5142 3a37 c56b bd38 1950 8f38
000002d0: 6807 e7b8 27c4 a8b7 30b5 c6b8 bc2e b9b6
000002e0: 8877 77b8 1812 ff36 0f63 1fb8 2d05 2d38
000002f0: 8315 86b8 ab92 a6b8 7b51 3db7 3a86 acb5
00000300: ccd3 4538 0091 4fb8 90f0 55b8 0e84 82b8
00000310: 9194 16b8 46fe 5f37 0811 63b7 dd31 a3b8
00000320: 349e 1ab8 588d 5538 aefa a5b8 2bb2 8cb8
00000330: 2d05 9e38 eddf 0d37 be67 65b8 5d3c af38
00000340: 6edd d3b8 c3a7 b0b8 2c60 9f38 449c e4b8
00000350: bf38 b037 6260 6938 286c c238 79d0 9ab8
00000360: 6004 5eb8 f2aa 3638 a259 28b8 78de d238
00000370: d47f da38 0e22 c238 5247 eab8 a7f8 9938
00000380: 6048 6ab8 1852 4e37 a24f e738 ff39 2bb8
00000390: b84b 7338 24c0 cc38 27bb a2b7 9017 9d38
000003a0: 68d2 dfb8 f695 de38 d93e 1a38 63ab 1eb7
000003b0: 1a4d 4cb7 08a2 cf38 df93 9eb8 5301 24b8
000003c0: 326f 6c38 f585 8ab7 2f91 30b8 66d8 efb6
000003d0: 788c 88b6 145f e8b8 73db a9b8 a278 c337
000003e0: 1d47 8f38 a514 8338 ad24 0938 7468 6838
000003f0: ae54 d6b8 c686 e1b8 26a4 c3b8 ca94 6d38

momentum_buffer f4 [96]
0.0 0.0 0.0 0.0 0.0 0.0 0.0 0.0
0.0 0.0 0.0 0.0 0.0 0.0 0.0 0.0
0.0 0.0 0.0 0.0 0.0 0.0 0.0 0.0
0.0 0.0 0.0 0.0 0.0 0.0 0.0 0.0
0.0 0.0 0.0 0.0 0.0 0.0 0.0 0.0
0.0 0.0 0.0 0.0 0.0 0.0 0.0 0.0
0.0 0.0 0.0 0.0 0.0 0.0 0.0 0.0
0.0 0.0 0.0 0.0 0.0 0.0 0.0 0.0
0.0 0.0 0.0 0.0 0.0 0.0 0.0 0.0
0.0 0.0 0.0 0.0 0.0 0.0 0.0 0.0
0.0 0.0 0.0 0.0 0.0 0.0 0.0 0.0
0.0 0.0 0.0 0.0 0.0 0.0 0.0 0.0
00000000: 0000 0000 0000 0000 0000 0000 0000 0000
00000010: 0000 0000 0000 0000 0000 0000 0000 0000
00000020: 0000 0000 0000 0000 0000 0000 0000 0000
00000030: 0000 0000 0000 0000 0000 0000 0000 0000
00000040: 0000 0000 0000 0000 0000 0000 0000 0000
00000050: 0000 0000 0000 0000 0000 0000 0000 0000
00000060: 0000 0000 0000 0000 0000 0000 0000 0000
00000070: 0000 0000 0000 0000 0000 0000 0000 0000
00000080: 0000 0000 0000 0000 0000 0000 0000 0000
00000090: 0000 0000 0000 0000 0000 0000 0000 0000
000000a0: 0000 0000 0000 0000 0000 0000 0000 0000
000000b0: 0000 0000 0000 0000 0000 0000 0000 0000
000000c0: 0000 0000 0000 0000 0000 0000 0000 0000
000000d0: 0000 0000 0000 0000 0000 0000 0000 0000
000000e0: 0000 0000 0000 0000 0000 0000 0000 0000
000000f0: 0000 0000 0000 0000 0000 0000 0000 0000
00000100: 0000 0000 0000 0000 0000 0000 0000 0000
00000110: 0000 0000 0000 0000 0000 0000 0000 0000
00000120: 0000 0000 0000 0000 0000 0000 0000 0000
00000130: 0000 0000 0000 0000 0000 0000 0000 0000
00000140: 0000 0000 0000 0000 0000 0000 0000 0000
00000150: 0000 0000 0000 0000 0000 0000 0000 0000
00000160: 0000 0000 0000 0000 0000 0000 0000 0000
00000170: 0000 0000 0000 0000 0000 0000 0000 0000

momentum_buffer f4 [96]
0.004999979 0.004999979 0.004999979 0.004999979 0.004999979 0.004999979 0.004999979 0.004999979
0.004999979 0.004999979 0.004999979 0.004999979 0.004999979 0.004999979 0.004999979 0.004999979
0.004999979 0.004999979 0.004999979 0.004999979 0.004999979 0.004999979 0.004999979 0.004999979
0.004999979 0.004999979 0.004999979 0.004999979 0.004999979 0.004999979 0.004999979 0.004999979
0.004999979 0.004999979 0.004999979 0.004999979 0.004999979 0.004999979 0.004999979 0.004999979
0.004999979 0.004999979 0.004999979 0.004999979 0.004999979 0.004999979 0.004999979 0.004999979
0.004999979 0.004999979 0.004999979 0.004999979 0.004999979 0.004999979 0.004999979 0.004999979
0.004999979 0.004999979 0.004999979 0.004999979 0.004999979 0.004999979 0.004999979 0.004999979
0.004999979 0.004999979 0.004999979 0.004999979 0.004999979 0.004999979 0.004999979 0.004999979
0.004999979 0.004999979 0.004999979 0.004999979 0.004999979 0.004999979 0.004999979 0.004999979
0.004999979 0.004999979 0.004999979 0.004999979 0.004999979 0.004999979 0.004999979 0.004999979
0.004999979 0.004999979 0.004999979 0.004999979 0.004999979 0.004999979 0.004999979 0.004999979
00000000: ddd6 a33b ddd6 a33b ddd6 a33b ddd6 a33b
00000010: ddd6 a33b ddd6 a33b ddd6 a33b ddd6 a33b
00000020: ddd6 a33b ddd6 a33b ddd6 a33b ddd6 a33b
00000030: ddd6 a33b ddd6 a33b ddd6 a33b ddd6 a33b
00000040: ddd6 a33b ddd6 a33b ddd6 a33b ddd6 a33b
00000050: ddd6 a33b ddd6 a33b ddd6 a33b ddd6 a33b
00000060: ddd6 a33b ddd6 a33b ddd6 a33b ddd6 a33b
00000070: ddd6 a33b ddd6 a33b ddd6 a33b ddd6 a33b
00000080: ddd6 a33b ddd6 a33b ddd6 a33b ddd6 a33b
00000090: ddd6 a33b ddd6 a33b ddd6 a33b ddd6 a33b
000000a0: ddd6 a33b ddd6 a33b ddd6 a33b ddd6 a33b
000000b0: ddd6 a33b ddd6 a33b ddd6 a33b ddd6 a33b
000000c0: ddd6 a33b ddd6 a33b ddd6 a33b ddd6 a33b
000000d0: ddd6 a33b ddd6 a33b ddd6 a33b ddd6 a33b
000000e0: ddd6 a33b ddd6 a33b ddd6 a33b ddd6 a33b
000000f0: ddd6 a33b ddd6 a33b ddd6 a33b ddd6 a33b
00000100: ddd6 a33b ddd6 a33b ddd6 a33b ddd6 a33b
00000110: ddd6 a33b ddd6 a33b ddd6 a33b ddd6 a33b
00000120: ddd6 a33b ddd6 a33b ddd6 a33b ddd6 a33b
00000130: ddd6 a33b ddd6 a33b ddd6 a33b ddd6 a33b
00000140: ddd6 a33b ddd6 a33b ddd6 a33b ddd6 a33b
00000150: ddd6 a33b ddd6 a33b ddd6 a33b ddd6 a33b
00000160: ddd6 a33b ddd6 a33b ddd6 a33b ddd6 a33b
00000170: ddd6 a33b ddd6 a33b ddd6 a33b ddd6 a33b

momentum_buffer f4 [96]
0.0 0.0 0.0 0.0 0.0 0.0 0.0 0.0
0.0 0.0 0.0 0.0 0.0 0.0 0.0 0.0
0.0 0.0 0.0 0.0 0.0 0.0 0.0 0.0
0.0 0.0 0.0 0.0 0.0 0.0 0.0 0.0
0.0 0.0 0.0 0.0 0.0 0.0 0.0 0.0
0.0 0.0 0.0 0.0 0.0 0.0 0.0 0.0
0.0 0.0 0.0 0.0 0.0 0.0 0.0 0.0
0.0 0.0 0.0 0.0 0.0 0.0 0.0 0.0
0.0 0.0 0.0 0.0 0.0 0.0 0.0 0.0
0.0 0.0 0.0 0.0 0.0 0.0 0.0 0.0
0.0 0.0 0.0 0.0 0.0 0.0 0.0 0.0
0.0 0.0 0.0 0.0 0.0 0.0 0.0 0.0
00000000: 0000 0000 0000 0000 0000 0000 0000 0000
00000010: 0000 0000 0000 0000 0000 0000 0000 0000
00000020: 0000 0000 0000 0000 0000 0000 0000 0000
00000030: 0000 0000 0000 0000 0000 0000 0000 0000
00000040: 0000 0000 0000 0000 0000 0000 0000 0000
00000050: 0000 0000 0000 0000 0000 0000 0000 0000
00000060: 0000 0000 0000 0000 0000 0000 0000 0000
00000070: 0000 0000 0000 0000 0000 0000 0000 0000
00000080: 0000 0000 0000 0000 0000 0000 0000 0000
00000090: 0000 0000 0000 0000 0000 0000 0000 0000
000000a0: 0000 0000 0000 0000 0000 0000 0000 0000
000000b0: 0000 0000 0000 0000 0000 0000 0000 0000
000000c0: 0000 0000 0000 0000 0000 0000 0000 0000
000000d0: 0000 0000 0000 0000 0000 0000 0000 0000
000000e0: 0000 0000 0000 0000 0000 0000 0000 0000
000000f0: 0000 0000 0000 0000 0000 0000 0000 0000
00000100: 0000 0000 0000 0000 0000 0000 0000 0000
00000110: 0000 0000 0000 0000 0000 0000 0000 0000
00000120: 0000 0000 0000 0000 0000 0000 0000 0000
00000130: 0000 0000 0000 0000 0000 0000 0000 0000
00000140: 0000 0000 0000 0000 0000 0000 0000 0000
00000150: 0000 0000 0000 0000 0000 0000 0000 0000
00000160: 0000 0000 0000 0000 0000 0000 0000 0000
00000170: 0000 0000 0000 0000 0000 0000 0000 0000

momentum_buffer f4 [16, 96, 3, 3]
-0.0001637347 -0.00017801828 4.8993505e-05 -0.0003065295 -0.00015251081 -0.00016784926 0.00012842103 -2.1184556e-05
-5.490038e-05 -0.00013768866 -0.00020552488 0.00011473401 0.00019409624 -7.434314e-05 0.0002318701 6.4222266e-05
8.005287e-05 -0.00024695462 -4.7504444e-05 0.0002840555 1.719344e-05 -0.00037682103 -0.00017975214 0.00017072864
-0.00014566777 0.00034111706 -0.00016808645 0.00020320006 0.00017609655 7.060221e-05 0.000103641665 -0.00036031104
0.00032613732 0.00017048403 -0.00019139133 -0.00023793781 0.00020644761 -0.00019576796 -4.8000264e-05 -0.00028889548
0.00036486142 -0.00037800265 -0.00026421522 0.00035879386 9.0712005e-05 0.00033793427 -1.7771405e-05 -0.00025442557
4.177605e-05 -0.00036189923 4.3944503e-05 5.2625735e-05 -0.00021023213 0.0002884301 -0.00033797647 0.00018311522
0.00027516956 -5.6347803e-06 -8.416783e-06 9.413512e-05 0.000273345 -0.0002997096 -0.00023668227 8.3998195e-05
-0.00022789321 -6.613678e-06 7.746976e-05 0.00013482373 0.0003671056 0.00022729192 0.000367846 -0.00033498838
-0.00012021768 -0.00011832069 0.00012219202 0.00032057558 0.00020325507 7.5436204e-05 -0.00035986924 -8.6586326e-05
-0.00025058983 -0.00032725927 0.00014757611 0.00016445895 -0.0002967413 -3.0037794e-05 -0.00033684465 4.3307275e-05
-0.00035323328 0.00010976067 0.00020031631 9.444705e-06 -0.0001744714 0.00034837323 -2.534522e-05 0.00024197932
-8.26167e-05 -5.92024e-05 0.0002804705 0.00012397513 0.00013819551 -2.440071e-05 5.022918e-05 0.00011804595
0.00036412713 0.0002606957 -0.0002291403 -2.0556714e-05 -1.61739e-05 0.00023715856 -0.00022042182 0.00021772287
0.00022308278 -0.000176176 2.0053818e-05 0.00024607597 -0.00018382753 0.00025164805 -0.00014381036 7.906487e-05
-0.00026291763 0.00038269215 -0.00037546392 -8.542624e-05 -3.6833164e-05 0.00025091507 -4.2077004e-06 -8.4521474e-05
-0.00025367178 7.72865e-06 -0.00032204445 0.00023544958 -0.00016446332 0.00018554597 -0.00031695302 0.00034435166
-0.000136715 0.00035530256 -0.0003372157 0.00010393059 -0.00033859347 -0.00034252775 0.00019858463 -0.0003272159
-0.00010280333 9.614139e-05 -2.6323709e-05 7.727223e-05 -0.00034269041 -0.00014559108 0.00025490258 0.00023927615
-0.00026855068 -8.3926374e-05 0.00018136376 -0.00028961521 -0.000214153 5.9037964e-05 -3.0091654e-05 -1.0359403e-05
-0.00011311722 0.0002837735 -0.000112494905 -0.00028975433 0.00031903223 3.7652073e-05 0.00022591226 -0.00034919512
0.00024059296 -8.094069e-05 -0.00015614064 0.00016709998 7.64723e-05 0.00032515885 -0.00028330932 0.000105471496
-0.00031114655 0.00014059861 -0.00016567724 7.564277e-05 -0.000268045 -0.0003771237 -0.00016922456 0.00026598023
2.408788e-05 5.099192e-05 1.2632438e-05 0.00011620222 -0.00022661424 0.0003252418 -0.000100139965 0.00025956545
0.00031247715 -0.00010009158 0.00018203024 -0.0001645838 0.00034994163 0.00013588845 -0.0002658964 -6.7086265e-05
-0.00027111734 -0.00015871444 0.0001974247 8.802863e-05 0.00023760792 -0.00036518826 0.00035044484 0.00013800808
0.0002705782 -0.00023786942 -0.00028967313 -0.0001999774 0.00010928002 -0.00016256342 0.00019917617 -7.273777e-05
4.1653668e-05 0.00032785506 -0.0003038173 -7.039979e-05 5.203569e-05 0.00017440853 0.00019987902 4.781549e-05
0.0001833952 8.569153e-05 -0.0002913527 -0.00034771868 -0.0001424102 0.00031877813 0.00019980292 0.00016847906
0.0001967786 0.0001270044 0.00025819204 9.144389e-05 -0.00024325537 0.00027462296 -0.00031232668 0.0002353582
0.00013294682 6.2441184e-05 0.00021472955 -0.00016143826 -0.00030838692 6.513154e-05 -0.00027608572 -0.0001815314
0.0003198442 0.00017443705 0.00027115882 -0.00018002353 -9.239932e-06 0.00019137358 -0.00030169796 -0.00036288935
00000000: 33b0 2bb9 6baa 3ab9 607e 4d38 b1b5 a0b9
00000010: 4feb 1fb9 b100 30b9 c2a8 0639 7db5 b1b7
00000020: d644 66b8 8560 10b9 2a82 57b9 5a9d f038
00000030: 5086 4b39 abe8 9bb8 2822 7339 11af 8638
00000040: 0fe2 a738 b079 81b9 823f 47b8 49ed 9439
00000050: a23a 9037 1090 c5b9 d97b 3cb9 9f05 3339
00000060: 65be 18b9 f5d7 b239 5d40 30b9 1a12 5539
00000070: 8fa6 3839 4610 9438 325a d938 21e8 bcb9
00000080: 69fd aa39 f5c3 3239 38b0 48b9 f27e 79b9
00000090: dc79 5839 1047 4db9 e453 49b8 e576 97b9
000000a0: df4a bf39 a82e c6b9 5e86 8ab9 7f1c bc39
000000b0: a33c be38 c52c b139 cd13 95b7 6c64 85b9
000000c0: b138 2f38 4bbd bdb9 0d51 3838 74ba 5c38
000000d0: c271 5cb9 6f38 9739 6f32 b1b9 9e02 4039
000000e0: a244 9039 6512 bdb6 cf35 0db7 686a c538
000000f0: bf4f 8f39 5722 9db9 ea2d 78b9 3028 b038
00000100: 9ef6 6eb9 10eb ddb6 4377 a238 785f 0d39
00000110: 1478 c039 3655 6e39 74db c039 61a1 afb9
00000120: 601d fcb8 f022 f8b8 ac20 0039 ed12 a839
00000130: de20 5539 8133 9e38 d5ac bcb9 ae95 b5b8
00000140: 9961 83b9 ff93 abb9 a9be 1a39 9d72 2c39
00000150: f193 9bb9 acf9 fbb7 869a b0b9 d5a4 3538
00000160: 2b32 b9b9 502f e638 000c 5239 b374 1e37
00000170: 4ff2 36b9 dda5 b639 729c d4b7 d4bb 7d39
00000180: 8142 adb8 1850 78b8 1d0c 9339 52ff 0139
00000190: 93e8 1039 20b0 ccb7 2cad 5238 708f f738
000001a0: 51e8 be39 fcad 8839 6245 70b9 3571 acb7
000001b0: 30ad 87b7 c4ad 7839 0821 67b9 8a4c 6439
000001c0: 54eb 6939 e3bb 38b9 3f39 a837 c203 8139
000001d0: d4c1 40b9 a1ef 8339 cdcb 16b9 a1cf a538
000001e0: 35d8 89b9 12a4 c839 ead9 c4b9 dd26 b3b8
000001f0: 4f7d 1ab8 408d 8339 df2f 8db6 1f41 b1b8
00000200: 40ff 84b9 4daa 0137 13d8 a8b9 04e3 7639
00000210: c973 2cb9 1e8f 4239 b72c a6b9 198a b439
00000220: 275b 0fb9 e747 ba39 53cc b0b9 50f5 d938
00000230: 3f85 b1b9 4c95 b3b9 283b 5039 2d8e abb9
00000240: 1e98 d7b8 849f c938 bcd1 dcb7 360d a238
00000250: 21ab b3b9 cfa9 18b9 72a4 8539 34e6 7a39
00000260: 43cc 8cb9 a101 b0b8 772c 3e39 7fd7 97b9
00000270: 428e 60b9 889f 7738 566d fcb7 4ccd 2db7
00000280: 5839 edb8 6fc7 9439 3eeb ebb8 2bea 97b9
00000290: c843 a739 9bec 1d38 dce2 6c39 2d14 b7b9
000002a0: ae47 7c39 b4be a9b8 afb9 23b9 8f37 2f39
000002b0: c15f a038 157a aa39 2289 94b9 9430 dd38
000002c0: 6221 a3b9 a76d 1339 a5b9 2db9 67a2 9e38
000002d0: 6488 8cb9 b0b8 c5b9 df71 31b9 4373 8b39
000002e0: 5410 ca37 28e0 5538 e8ef 5337 98b1 f338
000002f0: 4c9f 6db9 3785 aa39 3c02 d2b8 4916 8839
00000300: f9d3 a339 42e8 d1b8 5fdf 3e39 2194 2cb9
00000310: 5f78 b739 477d 0e39 0368 8bb9 aab0 8cb8
00000320: c124 8eb9 956c 26b9 ca03 4f39 039c b838
00000330: 6426 7939 bd76 bfb9 e9bb b739 43b6 1039
00000340: 64dc 8d39 966c 79b9 45df 97b9 06b1 51b9
00000350: 442d e538 c975 2ab9 f2d9 5039 cb8a 98b8
00000360: 49b5 2e38 f6e3 ab39 ab49 9fb9 99a3 93b8
00000370: e640 5a38 6fe1 3639 9e96 5139 7e8d 4838
00000380: c64d 4039 4ab5 b338 b3c0 98b9 034e b6b9
00000390: f253 15b9 ad21 a739 3082 5139 c1a9 3039
000003a0: 5a56 4e39 7c2c 0539 f35d 8739 91c5 bf38
000003b0: 5e12 7fb9 45fb 8f39 c7bf a3b9 7cca 7639
000003c0: a467 0b39 dbf2 8238 0629 6139 c147 29b9
000003d0: feae a1b9 3b97 8838 99bf 90b9 7759 3eb9
000003e0: c3b0 a739 17e9 3639 522a 8e39 b3c4 3cb9
000003f0: 3505 1bb7 74ab 4839 372d 9eb9 2f42 beb9

momentum_buffer f4 [16]
0.0 0.0 0.0 0.0 0.0 0.0 0.0 0.0
0.0 0.0 0.0 0.0 0.0 0.0 0.0 0.0
00000000: 0000 0000 0000 0000 0000 0000 0000 0000
00000010: 0000 0000 0000 0000 0000 0000 0000 0000
00000020: 0000 0000 0000 0000 0000 0000 0000 0000
00000030: 0000 0000 0000 0000 0000 0000 0000 0000

momentum_buffer f4 [16]
0.004999979 0.004999979 0.004999979 0.004999979 0.004999979 0.004999979 0.004999979 0.004999979
0.004999979 0.004999979 0.004999979 0.004999979 0.004999979 0.004999979 0.004999979 0.004999979
00000000: ddd6 a33b ddd6 a33b ddd6 a33b ddd6 a33b
00000010: ddd6 a33b ddd6 a33b ddd6 a33b ddd6 a33b
00000020: ddd6 a33b ddd6 a33b ddd6 a33b ddd6 a33b
00000030: ddd6 a33b ddd6 a33b ddd6 a33b ddd6 a33b

momentum_buffer f4 [16]
0.0 0.0 0.0 0.0 0.0 0.0 0.0 0.0
0.0 0.0 0.0 0.0 0.0 0.0 0.0 0.0
00000000: 0000 0000 0000 0000 0000 0000 0000 0000
00000010: 0000 0000 0000 0000 0000 0000 0000 0000
00000020: 0000 0000 0000 0000 0000 0000 0000 0000
00000030: 0000 0000 0000 0000 0000 0000 0000 0000
